examples/full_project_setup/q_table_orig.pt (torch, 21576 bytes, 6 tensors)

net.0.weight f4 [64, 5]
0	0xbd40e54e	-0.047093682
1	0x3f4e09d4	0.80483747
2	0xbc27ff36	-0.010253718
3	0x3f32fbb9	0.6991535
4	0x3f675328	0.9036126
5	0xbd70dbce	-0.058803372
6	0x3ecdcd1f	0.40195557
7	0xbc826bd3	-0.015920555
8	0x3d2e2f11	0.042525355
9	0xbf9e9800	-1.2390137
10	0xbf14b145	-0.5808299
11	0xbe806d31	-0.25083306
12	0x3e6547dc	0.22390693
13	0xbf76c27b	-0.96390504
14	0xc0072cc0	-2.1121063
15	0x3e8b865b	0.27250943
16	0x3bde2f6a	0.0067805545
17	0x3e94a808	0.29034448
18	0xbf41cd82	-0.75704205
19	0xc0cdb21d	-6.4279923
20	0x3d743e85	0.059629936
21	0x3fba52be	1.4556501
22	0x3e8872a7	0.26649973
23	0x3f56544e	0.8372239
24	0xc0218be2	-2.5241628
25	0x3d8b4df2	0.06801976
26	0x3d373f27	0.04473796
27	0x3db8cdca	0.09023626
28	0x3db14fea	0.086578205
29	0xc0b017d8	-5.5029106
30	0x3dc558e1	0.09636093
31	0xbc8e75b7	-0.017390115
32	0x3c5697ce	0.0130977165
33	0x3e90522b	0.2818769
34	0xc04e2328	-3.2208958
35	0xbe6d78e7	-0.23190652
36	0xbe8be515	-0.27323213
37	0xbeb1f315	-0.3475577
38	0xbe0db3d0	-0.13838124
39	0x3c84ab4d	0.016194964
40	0x3e513341	0.20429708
41	0xbe82e53a	-0.2556551
42	0x3e2f1bb0	0.17100406
43	0x3e68f147	0.2274829
44	0x40a6360b	5.194097
45	0x3db5c7aa	0.088759735
46	0x3f868ea3	1.0512279
47	0x3e72a77c	0.23696703
48	0xbff3aee1	-1.9037744
49	0xbf84a79f	-1.0363654
50	0xbdd2c861	-0.102921255
51	0x3f3bda00	0.73379517
52	0xbcdb9a73	-0.026807046
53	0x3eae84e0	0.3408575
54	0x3ff70445	1.9298178
55	0xbdd78daa	-0.10525067
56	0x3eb8825b	0.36036953
57	0xbaba905a	-0.0014233694
58	0x3d946c49	0.07247216
59	0x4060c13c	3.511794
60	0x3e354f16	0.1770595
61	0x3ecca47c	0.39969242
62	0x3e8f2686	0.2795908
63	0xbf804124	-1.0019879
64	0xbc27f457	-0.010251126
65	0x3ed45c33	0.41476592
66	0x3eb08248	0.34474397
67	0x3e24e3e4	0.16102558
68	0x3f2aac7e	0.6666945
69	0x4026cb3d	2.6061547
70	0x3ed2b123	0.4115077
71	0x3ed00994	0.40632308
72	0x3e2ad1e4	0.1668163
73	0xbdcd954c	-0.10038242
74	0xc082ae7d	-4.0838
75	0x3e795c99	0.2435173
76	0x3fba4802	1.4553225
77	0xbfa18ef3	-1.262175
78	0x3f5a4132	0.8525573
79	0xbf636709	-0.88829094
80	0x3e78ee13	0.24309568
81	0x3f85ef13	1.0463585
82	0x3dd3c267	0.10339814
83	0x3f98fd42	1.1952288
84	0x3f9419d3	1.1570381
85	0x3d96cf64	0.07363775
86	0x3f826403	1.0186771
87	0xbfb6a8c2	-1.4270251
88	0xbed0361b	-0.4066628
89	0xbf8645fb	-1.0490106
90	0xbea4b7fb	-0.32171616
91	0x3f9e4fc3	1.2368091
92	0x3ea54b11	0.32283834
93	0x3f7b96d0	0.98276997
94	0x406eb520	3.729805
95	0x3e5cd75b	0.21566527
96	0x3fbd57d9	1.4792434
97	0xbea37eff	-0.31932828
98	0x3f491421	0.7854634
99	0xc08b21c4	-4.347872
100	0x3c95a00a	0.01826479
101	0x3cc9b3a8	0.0246218
102	0x3e067e9b	0.13134234
103	0xbb242c67	-0.002505088
104	0xc0c082c1	-6.015961
105	0x3ea86c14	0.32894957
106	0x3d9b5d4e	0.07586156
107	0x3d608bf1	0.05482096
108	0x3b05d93e	0.0020423676
109	0x407c3a84	3.9410715
110	0xbd5505ba	-0.052007414
111	0x3f15a19c	0.5844972
112	0xbca730c3	-0.020408994
113	0x3f4a77bd	0.79088956
114	0xbfcc5169	-1.5962344
115	0x3e5b539f	0.21418618
116	0x3f95cc0c	1.1702895
117	0xbe978386	-0.29592532
118	0x3f820dfe	1.016052
119	0xc06b824a	-3.6798272
120	0xbcccc433	-0.024995899
121	0x3e8fb869	0.2807038
122	0x3dd7e0bf	0.10540914
123	0x3ec895fb	0.39176926
124	0x40a9e1d7	5.3088183
125	0x3eab173d	0.33416167
126	0x3e429d69	0.1900536
127	0x3e9864d1	0.29764417
128	0xbf8b8a8f	-1.090166
129	0x4047cce7	3.1218812
130	0x3e75d09a	0.24005356
131	0x3ee58a8c	0.44832265
132	0x3e95f6a6	0.2928974
133	0x3ec99e0a	0.39378387
134	0xbebbe200	-0.36695862
135	0xbed2d8c5	-0.41181007
136	0x3f5dedd9	0.8669105
137	0x3e5f8ff7	0.21832262
138	0x3ef31281	0.47475055
139	0x3fe8af74	1.8178544
140	0xbe987413	-0.29776058
141	0x3f5e2d3f	0.8678779
142	0xbcb97fe7	-0.022643996
143	0x3f36aec4	0.7136042
144	0xc074a2ac	-3.8224287
145	0x3e94122b	0.2892011
146	0x3eb6b479	0.35684565
147	0x3e9b4839	0.3032854
148	0x3e5bb88e	0.21457121
149	0xc056a53b	-3.3538349
150	0x3e6fdad8	0.23423326
151	0xbf6c19b1	-0.922267
152	0x3ece183f	0.40252873
153	0x3f334827	0.7003197
154	0xc07dc106	-3.9649062
155	0xbf462d4c	-0.7741287
156	0xbf81e7e5	-1.0148894
157	0x3e85b623	0.26115522
158	0xbfb87658	-1.4411116
159	0xbff6ff9e	-1.9296758
160	0xbd9fd7e6	-0.07804851
161	0x3fbe739e	1.4879034
162	0xbe860489	-0.26175335
163	0x3f5e8c35	0.8693269
164	0xbed8b576	-0.42325944
165	0x3ea203cd	0.31643525
166	0x3e809b98	0.2511871
167	0xbdb53679	-0.088482805
168	0x3f50d58b	0.8157584
169	0xc09debc0	-4.935028
170	0x3e453b4f	0.19260906
171	0x3f8af479	1.0855857
172	0xc02ecbbd	-2.7311852
173	0x3f54dd0a	0.8314978
174	0x3ea7a41b	0.3274239
175	0x3e558f06	0.2085534
176	0x3f3a212b	0.7270686
177	0x3e7d6323	0.24744849
178	0x3e796131	0.24353482
179	0xbf8d6ec2	-1.1049426
180	0x3cd22754	0.025653519
181	0x3fca2aaf	1.5794276
182	0x3de9d137	0.11416858
183	0x3f57d214	0.8430493
184	0xc0a79e49	-5.238072
185	0xbd9e8f91	-0.07742227
186	0x3f586909	0.8453527
187	0xbc889802	-0.016674045
188	0x3d0b3e4d	0.03399496
189	0xc04917dc	-3.1420813
190	0x3d1d3ace	0.03838616
191	0x3f26b9e5	0.651274
192	0xbc9aaee3	-0.01888222
193	0x3e03fd4a	0.12889591
194	0x40210b69	2.5163214
195	0x3de55376	0.111975595
196	0x3fa97c80	1.3241119
197	0x3e6fc53f	0.23415087
198	0x3fadda53	1.3582252
199	0xbed099f6	-0.40742463
200	0x3e0f3f0e	0.13988897
201	0x3f1783e2	0.5918561
202	0x3e291617	0.16512333
203	0x3ef6fe88	0.48241067
204	0x408ff4c4	4.4986286
205	0x3e3df50a	0.18550506
206	0x3fd33e1d	1.650333
207	0xbe748331	-0.2387817
208	0x3f5d4d78	0.8644633
209	0xc0124ff0	-2.286129
210	0xbf1f818e	-0.6230706
211	0x3e84135f	0.2579603
212	0x3e709ddd	0.2349772
213	0xbe040bd7	-0.12895142
214	0x3eaea615	0.34111086
215	0xbe0040f2	-0.12524775
216	0xbf3e4313	-0.743211
217	0x3da213b8	0.07913917
218	0xbf47c31a	-0.78032076
219	0xbfac9015	-1.348147
220	0xbe77458c	-0.24147624
221	0x3eaa48c9	0.33258656
222	0xbbfbd619	-0.0076854345
223	0x3d51f6b5	0.05126067
224	0x40407c7b	3.0075977
225	0x3e7d7e36	0.24755177
226	0x3ef5a433	0.47976837
227	0x3e89938d	0.26870385
228	0xbef860ea	-0.4851144
229	0xc0942cde	-4.630477
230	0x3ec21006	0.3790285
231	0x3f9d0082	1.226578
232	0xbf2d6872	-0.67737496
233	0x3e9915eb	0.29899535
234	0xbf73fa1b	-0.95303506
235	0x3e41091a	0.18851128
236	0xbe417a83	-0.18894391
237	0x3e05276f	0.13003324
238	0xbbe1700d	-0.0068798126
239	0xbfda98be	-1.7077863
240	0x3eb1ff95	0.34765306
241	0x3f287ad5	0.65812427
242	0xbea69d73	-0.32542
243	0x3e10e708	0.14150631
244	0xbfa38763	-1.2775692
245	0xbccb518d	-0.02481916
246	0x3f597012	0.8493663
247	0xbbab5c35	-0.005229498
248	0x3eb9fa25	0.36323658
249	0x40314e58	2.7704067
250	0xbdd8b708	-0.105817854
251	0x3f01b8cb	0.50672597
252	0x3c1aa16a	0.009437898
253	0x3ddc49c2	0.10756256
254	0xbfa86e62	-1.3158686
255	0x3c0df635	0.008664657

net.0.bias f4 [64]
0	0x40a7374b	5.2254996
1	0x40953a66	4.6633787
2	0xc0197f84	-2.398408
3	0xc0a458fb	-5.135862
4	0xc029398a	-2.644137
5	0xbc714713	-0.014726418
6	0x4091689d	4.54402
7	0xbdb21502	-0.08695413
8	0xc0361f39	-2.8456557
9	0xc09cd71f	-4.90126
10	0x40a35829	5.1045117
11	0x408c8b9a	4.392041
12	0xc09a4835	-4.8213143
13	0xc00cecca	-2.2019525
14	0xc0616d54	-3.5222979
15	0xbf5888cd	-0.8458374
16	0xbf0cc786	-0.5499195
17	0xbfdc09f5	-1.7190539
18	0x3fc0ab41	1.5052263
19	0xbe76ea95	-0.24112923
20	0xc000c052	-2.0117383
21	0xbf564dfb	-0.8371274
22	0x40a3cfd1	5.119118
23	0xc09ef48c	-4.967352
24	0x407253e5	3.7863705
25	0xc05b5a1a	-3.4273744
26	0xc066dec3	-3.6073463
27	0x4032df43	2.7948768
28	0x3fac9031	1.3481504
29	0xc090d4e6	-4.5259886
30	0xc0979c9c	-4.7378674
31	0xc01810b5	-2.3760197
32	0x3f065c55	0.5248464
33	0xc01cb96a	-2.4488168
34	0xc004afb1	-2.0732234
35	0xc08d6c29	-4.419453
36	0x3fc02e38	1.5014105
37	0x40a090c3	5.017671
38	0x40a149e2	5.040269
39	0x3e0c1de4	0.13683277
40	0xbfadf07f	-1.3589019
41	0x3f8e9df2	1.1141951
42	0xbe9c8c6a	-0.30575877
43	0xbfd7161f	-1.6803626
44	0x408aac9f	4.333572
45	0xc03cdb49	-2.950884
46	0xbea6c261	-0.32570174
47	0xbf6535a9	-0.89535004
48	0xbedff6d8	-0.43743014
49	0x40a658da	5.198346
50	0x40a5e4af	5.1841655
51	0x40b78663	5.7351546
52	0xc070a8b3	-3.7602966
53	0xbe77d743	-0.2420321
54	0x3fcc8691	1.5978566
55	0xc05c54f9	-3.4426863
56	0xc04f3d5f	-3.2381208
57	0xc00520be	-2.0801234
58	0xbf4e65b2	-0.80623925
59	0x4029c5c0	2.6526947
60	0xc0300f91	-2.75095
61	0xc0596107	-3.396547
62	0x3ec6b0a6	0.38806647
63	0x3ea27f3c	0.31737697

net.3.weight f4 [64, 64]
0	0x3ee0570b	0.4381641
1	0x3f1ea0dd	0.6196421
2	0xbe3c6441	-0.18397619
3	0xbe680c21	-0.22660877
4	0xbdb34ac0	-0.08754492
5	0xbe977946	-0.29584712
6	0xbe5e7eb4	-0.21728021
7	0xbdceb288	-0.10092646
8	0x3ea158c0	0.31513023
9	0xbe491916	-0.19638476
10	0x3ef0734c	0.46962965
11	0x3f085b92	0.53264725
12	0xbe05876d	-0.13039942
13	0xbbc72078	-0.0060768686
14	0xbedfdd29	-0.4372342
15	0xbe9bac61	-0.30404952
16	0xbdbedf74	-0.09319964
17	0xbec5b204	-0.38612378
18	0x3e123191	0.1427672
19	0xbeb1b859	-0.3471096
20	0xbf1efba8	-0.62102747
21	0x3d6ce15d	0.05783211
22	0x3ef7fc73	0.4843479
23	0xbed50a66	-0.41609496
24	0x3e857785	0.2606775
25	0x3e1c4d2e	0.15263817
26	0xbd038906	-0.032113098
27	0x3e377dcf	0.17919086
28	0xbbc9480e	-0.006142623
29	0xbe2f65ea	-0.17128721
30	0x3dc91533	0.098184966
31	0x3d71fe84	0.059080616
32	0xbd0104a8	-0.03149858
33	0xbe6a07ef	-0.22854589
34	0xbf26899d	-0.6505373
35	0xbe2c7074	-0.16839772
36	0xbdbf91c8	-0.093539774
37	0x3f2cc665	0.67490226
38	0x3f08e069	0.5346742
39	0x3d542bfa	0.05179975
40	0xbd8a15bb	-0.06742426
41	0xbe97ed07	-0.29673025
42	0x3e9c46bc	0.30522716
43	0x3d50e2a2	0.050997384
44	0x3f112228	0.56692743
45	0xbe4d88f8	-0.2007178
46	0xbecbd939	-0.39814165
47	0x3e35eeb5	0.17766841
48	0xbf0e085f	-0.55481523
49	0x3e03c77e	0.12869069
50	0x3f46ab27	0.7760491
51	0x3e7508c0	0.23929119
52	0xbf5ae0ac	-0.8549907
53	0x3c8ebc80	0.017423868
54	0x3c7dc93d	0.0154898735
55	0xbcf73f05	-0.030181417
56	0xbcee7ced	-0.029112304
57	0xbde0a724	-0.109693795
58	0xbccea38a	-0.025224466
59	0xbdd1babd	-0.102406956
60	0xbe5b623e	-0.21424195
61	0x3cbfb22b	0.023400387
62	0x3c6e25d0	0.014535382
63	0x3ea8a62f	0.32939288
64	0x3e1bea24	0.15226036
65	0x3ee14909	0.44001034
66	0xbdeb5531	-0.11490858
67	0xbd9435e2	-0.0723684
68	0xbd9b2171	-0.07574738
69	0xbdb772e3	-0.0895746
70	0xbd7ca656	-0.061682068
71	0x3dbb9584	0.09159377
72	0xbd5e3231	-0.054247085
73	0xbd950a0a	-0.072773054
74	0x3e8fab26	0.28060263
75	0x3db14a1d	0.08656714
76	0x3ce83ddb	0.028349807
77	0x3ca247df	0.019809661
78	0x3d0d768f	0.034536894
79	0xbd0fad4d	-0.035077382
80	0xbdc0bf32	-0.094114676
81	0xbc13c08c	-0.009018075
82	0xbe180f9a	-0.14849702
83	0xbdedae44	-0.11605504
84	0x3d2c6f1a	0.042098142
85	0x3cd155c5	0.025553593
86	0x3ea0c591	0.3140073
87	0xbe670ea2	-0.22564176
88	0xbd219622	-0.03944982
89	0xbdc286fd	-0.09498403
90	0xbe0469a1	-0.12930919
91	0xbd331d4d	-0.043729115
92	0xbcf94c9e	-0.030432042
93	0x3c93b1ac	0.018029056
94	0xbd366f3f	-0.044539686
95	0xbdd599d3	-0.1042973
96	0xbe39d38d	-0.18147106
97	0xbba7e88b	-0.005124157
98	0xbdd9cec2	-0.10635139
99	0xbc8169e6	-0.015797567
100	0xbe3ebdd8	-0.18627107
101	0x3ea22935	0.31672063
102	0xbcbdfd1b	-0.02319198
103	0xbdf079c2	-0.117419735
104	0xbe82c8b5	-0.25543752
105	0xbe3e98e5	-0.18613012
106	0xbe07b6b3	-0.13253288
107	0xbd983c6c	-0.074333996
108	0xbd1e8887	-0.03870442
109	0xbdce00a8	-0.10058719
110	0x3d298d1c	0.041394338
111	0xbdd35f08	-0.1032086
112	0xbd3d0e1b	-0.04615603
113	0xbd5f742d	-0.054554153
114	0x3e8bb63c	0.2728747
115	0x3e59e354	0.21278125
116	0xbbccbb28	-0.0062478967
117	0x3ca60f1f	0.020270882
118	0xbddfb0e9	-0.10922415
119	0xbe14af5e	-0.14520022
120	0x3c7e7eb5	0.015533139
121	0x3d92c483	0.07166388
122	0xbd3e5811	-0.046470705
123	0xbde11086	-0.1098948
124	0xba664cc5	-0.0008785243
125	0xbcee54cf	-0.029093174
126	0x3c91ba28	0.017788962
127	0xbe3d8c0a	-0.18510452
128	0xbd76e521	-0.060277108
129	0x3d4f2f4b	0.05058221
130	0xbdc04ca3	-0.09389617
131	0xbcf75f74	-0.030196883
132	0xbcd4866c	-0.025943004
133	0xbd1ee6b0	-0.03879422
134	0x3d3105d8	0.043218464
135	0x3ddf7e80	0.109128
136	0xbd825c97	-0.06365316
137	0x3cd5ec05	0.02611352
138	0x3ddcdb81	0.107840545
139	0x3df68a40	0.12038088
140	0xbcf30c5f	-0.029668985
141	0xbd798043	-0.060913336
142	0x3cc95f33	0.024581527
143	0xbdd3b45d	-0.10337136
144	0xbc59c0a1	-0.013290555
145	0xbd851c5b	-0.06499549
146	0xbd8c2cd2	-0.06844486
147	0xbda89c5d	-0.08232949
148	0xbd832a6e	-0.06404577
149	0xbd7df4dd	-0.062001098
150	0xbd949489	-0.07254893
151	0x3c9dad56	0.019247692
152	0xbde1a489	-0.11017711
153	0xbdbc86c0	-0.09205389
154	0xbe11c90d	-0.14236851
155	0x3da56ed6	0.08077781
156	0xbd483478	-0.048878163
157	0x3d75f6af	0.06004971
158	0xbe04f870	-0.12985396
159	0x3dc84774	0.097792536
160	0xbdda89db	-0.10670825
161	0x3cef68c3	0.029224759
162	0x3afff8e2	0.0019529129
163	0xbd16ada1	-0.03678668
164	0xbe4a4928	-0.1975447
165	0xbdbff188	-0.0937224
166	0xbdd80fdc	-0.105499
167	0xbdaa767b	-0.083233796
168	0x3d4d20e3	0.05008019
169	0xbce57ba3	-0.028013056
170	0xbdc43d29	-0.09581978
171	0x3b247b47	0.0025097893
172	0xbced7bf2	-0.028989766
173	0xbd007ff2	-0.03137202
174	0x3d08df36	0.033415996
175	0x3ac9e1f5	0.0015402423
176	0x3bb39b13	0.005481133
177	0xbe0a0917	-0.1348003
178	0x3d99d43e	0.07511185
179	0x3d91a711	0.071119435
180	0xbd54603b	-0.051849585
181	0xbcdafc60	-0.02673167
182	0xbb950afd	-0.004548429
183	0x3dc59b25	0.09648732
184	0xbdecbc90	-0.11559403
185	0x3c8a5456	0.016885918
186	0xbd99d94b	-0.075121485
187	0x3c6efb9d	0.0145863565
188	0xbe0a42b5	-0.13502009
189	0x3d88d6df	0.066816084
190	0x3deadad0	0.114675164
191	0xbd589078	-0.05287215
192	0xbe5201ab	-0.20508449
193	0xba284718	-0.0006419285
194	0xbc986084	-0.01860071
195	0x3ba5fd3f	0.0050655897
196	0x3a4500a1	0.00075150473
197	0xbdf24046	-0.118286654
198	0x3e84e9fc	0.25959766
199	0xbd6753ec	-0.05647652
200	0xbd9be595	-0.07612149
201	0xbbf14cad	-0.007363877
202	0x3bf58a32	0.007493281
203	0x3d49817a	0.049195744
204	0x3bf582ac	0.007492384
205	0xbe07cbce	-0.13261339
206	0xbe66aaf4	-0.22526151
207	0xbe55f86d	-0.20895548
208	0xbda44e30	-0.080227256
209	0xbe3ce77d	-0.18447681
210	0xbd52d841	-0.051475767
211	0x3e3b9746	0.18319425
212	0xbe13f852	-0.14450195
213	0xbd03cbcc	-0.032176778
214	0xbd598a0f	-0.05311018
215	0xbd250374	-0.040286496
216	0xbd760b66	-0.060069464
217	0xbe493ab0	-0.19651294
218	0xbd71df6a	-0.059050955
219	0xbbb5e969	-0.0055515063
220	0xbe525521	-0.20540287
221	0xbdc46b0d	-0.09590731
222	0xbcc675b1	-0.024226042
223	0xbe247ee2	-0.16064027
224	0x3e898cf2	0.26865345
225	0x3b42fa26	0.002975115
226	0xbe8e381c	-0.27777183
227	0x3d5626e7	0.052283194
228	0x3e1ceac0	0.15323925
229	0x3dea6e1b	0.11446782
230	0x3d474b3f	0.048655745
231	0xbea016c5	-0.31267372
232	0x3bbec273	0.00582152
233	0x3dfd6926	0.12373571
234	0xbe09cf08	-0.13457882
235	0xbc061095	-0.008182664
236	0x3e3cabd8	0.18424928
237	0xbe3846da	-0.17995778
238	0xbe181f36	-0.14855656
239	0xbd236ee1	-0.039900664
240	0xbe829699	-0.25505522
241	0xbdad0c77	-0.08449643
242	0x3da411f7	0.08011239
243	0xbe03be62	-0.12865594
244	0xbe22a689	-0.1588384
245	0x3df42e5a	0.11922903
246	0x3e149b2f	0.14512323
247	0xbdb784da	-0.08960886
248	0xbe17092a	-0.1474959
249	0xbdb6e64b	-0.08930644
250	0xbd75013b	-0.059815627
251	0xbda7d33d	-0.081945874
252	0xbe0f434c	-0.13990515
253	0xbde4c7ab	-0.11170896
254	0x3cfc8710	0.030826122
255	0x3cea4a3f	0.028599856

net.3.bias f4 [64]
0	0x4093a9b8	4.6144676
1	0x400f92cb	2.2433345
2	0xbd7040fd	-0.058655728
3	0x402e8d2b	2.7273662
4	0xbd04259f	-0.03226244
5	0xbe7e4a8e	-0.24833128
6	0xbe104456	-0.14088568
7	0x3f4a3be8	0.7899766
8	0x407adc8a	3.9197106
9	0x3eefa46b	0.46805128
10	0x3fe7e42e	1.811651
11	0x40633fb7	3.5507638
12	0xbe34d4db	-0.17659323
13	0xbf410ebd	-0.75413114
14	0x403c8fb3	2.9462707
15	0xbe0e82cc	-0.13917083
16	0x40167989	2.351168
17	0xbdfd0761	-0.12354923
18	0x3e951189	0.2911494
19	0xbd8587de	-0.06520055
20	0xbd100ead	-0.035170246
21	0xbd5024d0	-0.050816357
22	0x3f58cf66	0.84691465
23	0xbe1025e4	-0.14076954
24	0xbce72cb8	-0.028219566
25	0xbdda95cc	-0.10673103
26	0xbc8d645b	-0.017259767
27	0xbe6df17d	-0.23236652
28	0x4069b7a0	3.6518326
29	0xbe99faed	-0.30074254
30	0x3d517fe5	0.05114736
31	0xbdad0300	-0.08447838
32	0xbde8e49f	-0.11371731
33	0x4067d09f	3.6221082
34	0xbe940da1	-0.28916648
35	0x4046ee76	3.1083045
36	0x3f658ec3	0.8967096
37	0x4080f779	4.030209
38	0xbf836828	-1.0266161
39	0x405a6bc6	3.412828
40	0x403ab2b5	2.9171574
41	0xbe18608f	-0.14880584
42	0x3a9f712e	0.0012164467
43	0xbe153f56	-0.14574942
44	0xbe282313	-0.1641963
45	0x3f988483	1.1915439
46	0x403c4d5f	2.9422224
47	0x406f07f8	3.7348614
48	0x408a7715	4.3270364
49	0x3ca90e9f	0.020636855
50	0xbd899093	-0.067170285
51	0x405d76d2	3.4603772
52	0x3ef710ae	0.48254913
53	0xbdbc953d	-0.092081524
54	0x402ef549	2.733721
55	0xbf060b5b	-0.5236108
56	0x3fe5dbbc	1.7957683
57	0xbd6caac8	-0.057780057
58	0xbe0a405b	-0.13501112
59	0x3cf0c50c	0.029390834
60	0x3e431bf1	0.19053628
61	0x4011d263	2.278466
62	0x3d672b87	0.056437995
63	0x3eb0e63a	0.3455065

net.6.weight f4 [4, 64]
0	0x3dd5dbe6	0.10442333
1	0xbb16d582	-0.0023015444
2	0xbc88eb8b	-0.016713878
3	0x3e0aee76	0.13567528
4	0x3d78a2c2	0.060702093
5	0x3c538e9b	0.012912418
6	0xbd21aaf7	-0.039469685
7	0xbd8e0eb5	-0.06936399
8	0x3dbd9dda	0.092586234
9	0xbe20fce6	-0.15721473
10	0xbdf1672c	-0.117872566
11	0x3f22d0b2	0.63599694
12	0x3b0f706d	0.002188708
13	0xbd46ae66	-0.048506163
14	0x3c8d0bd7	0.01721756
15	0x3dc4171a	0.09574719
16	0x3b08ad4b	0.0020855244
17	0x3e35799c	0.17722172
18	0xbc396a69	-0.011316874
19	0x3d46c991	0.048532072
20	0x3be7e1a3	0.0070764585
21	0xbda4b99e	-0.08043216
22	0xbc88aa8e	-0.01668289
23	0x3ce94999	0.028477477
24	0xbd7cff18	-0.061766714
25	0xbda6d4f8	-0.08146089
26	0xbd125ecd	-0.03573494
27	0xbc0bfb1d	-0.008543757
28	0x3e3b25da	0.18276158
29	0xbe069624	-0.13143212
30	0xbdecc4be	-0.11560963
31	0x3bd71588	0.006563846
32	0xbdefff40	-0.11718607
33	0x3d947db7	0.07250541
34	0xbca40db1	-0.02002606
35	0x3ca78393	0.020448482
36	0xbd84a426	-0.06476621
37	0xbbd3dce8	-0.006465543
38	0xbbf777ea	-0.0075521367
39	0xbd4eb553	-0.050465893
40	0xbc23e30a	-0.010002861
41	0xbdf6e929	-0.120561905
42	0xbe03911a	-0.1284832
43	0x3d4dc1c3	0.050233614
44	0xbdbe9e81	-0.09307576
45	0x3c759179	0.014988297
46	0x3f8e47e2	1.1115687
47	0x3e0a1be1	0.13487197
48	0x3e2ed995	0.17075188
49	0xbd9c5a9c	-0.0763447
50	0xbc37ac1e	-0.0112104695
51	0x3dd3488c	0.103165716
52	0x3c3f4532	0.011674212
53	0xbd2e2341	-0.04251409
54	0x3ca93522	0.020655219
55	0xbd00cf8a	-0.031447925
56	0xbd5a0b59	-0.05323348
57	0xbdb829eb	-0.0899237
58	0xbae6ed7e	-0.0017618386
59	0xbddeadc7	-0.10872989
60	0x39d50598	0.00040630694
61	0x3d688760	0.05676973
62	0xbd838938	-0.06422657
63	0x3deab3d0	0.11460078
64	0x3d3d9e31	0.04629344
65	0x3b55f9a2	0.0032650013
66	0x3bdb78d6	0.0066977544
67	0x3e121a6b	0.1426789
68	0x3c5b9cc6	0.013404077
69	0x3d97ed78	0.074183404
70	0x3dba433a	0.09094854
71	0x3cd5bfa9	0.026092367
72	0x3d458f6b	0.048232477
73	0xbc7f5d65	-0.015586232
74	0x3e50d916	0.20395312
75	0x3c4cea09	0.01250697
76	0xbcabdf99	-0.020980643
77	0xbbff7e62	-0.0077970484
78	0xbc66a42c	-0.014077228
79	0x3cea9ed0	0.02864018
80	0xbd36168f	-0.044455107
81	0x3dfbdc96	0.12297933
82	0xbbff6ffc	-0.007795332
83	0x3cf70f98	0.030158803
84	0xbd044e1c	-0.032301053
85	0x3d8cd72d	0.06876979
86	0xbbef644d	-0.007305658
87	0xbd683741	-0.05669332
88	0x3d8e2fe5	0.06942729
89	0xbd98c59c	-0.07459566
90	0xbcf3f9f0	-0.029782265
91	0x3d8854f6	0.0665683
92	0x3bfcef34	0.007718945
93	0xbc4752cf	-0.012165739
94	0x3c83515d	0.016030008
95	0xbcf4fed0	-0.02990666
96	0xbdd80a6a	-0.10548861
97	0xbcb0f1b6	-0.021599632
98	0x3c30f1e1	0.010799856
99	0x3c95b3a2	0.018274132
100	0xbd0297ed	-0.03188317
101	0x3ccda105	0.025101194
102	0x3ba2e70c	0.0049713906
103	0x3d0d0208	0.034425765
104	0xbcad8d6b	-0.021185597
105	0x3e20a436	0.15687642
106	0x3dbe2a73	0.0928544
107	0x3d4658d0	0.048424542
108	0xbd6ef53a	-0.058339335
109	0x3c75a7fd	0.014993665
110	0x3e10408a	0.1408712
111	0xbc6afc3d	-0.014342365
112	0x3db8eea7	0.09029894
113	0x3d106afa	0.03525827
114	0xbce26bc9	-0.027639287
115	0xbcdd4939	-0.027012454
116	0xbd590a3c	-0.052988276
117	0xbd924a0f	-0.07143032
118	0xbb076871	-0.0020661617
119	0x3dccf147	0.100069575
120	0xbcbde75d	-0.023181612
121	0x3d16c543	0.036809217
122	0xbd7048de	-0.05866324
123	0x3ca692bb	0.020333638
124	0x3bb60bf2	0.005555623
125	0xbcdf8f0f	-0.027289895
126	0xbb852101	-0.0040627723
127	0xbd4805af	-0.048833545
128	0x3d77beb0	0.06048459
129	0x3c89c5be	0.016817924
130	0x3d033875	0.032036263
131	0x3cc2e383	0.023790127
132	0xbd5e950c	-0.05434136
133	0xbcf0fea0	-0.02941829
134	0x3de76eae	0.11300407
135	0x3cbde98e	0.023182657
136	0x3d9ec7bf	0.07752942
137	0xbbdf863c	-0.006821422
138	0x3e6a3cba	0.22874728
139	0x3c36f9e9	0.011167982
140	0x3b1d4377	0.002399651
141	0x3ce224a0	0.027605355
142	0x3cea608c	0.02861049
143	0xbd003ac8	-0.03130606
144	0xbcac3b40	-0.021024346
145	0x3c001cc1	0.007819355
146	0x3bd67bec	0.0065455344
147	0xbe05be8a	-0.13060966
148	0xbc925f75	-0.017867783
149	0x3d1d7c83	0.03844882
150	0xbccc0e3d	-0.024909133
151	0xbd4be977	-0.049783196
152	0xbdac7802	-0.08421327
153	0x3d7c9774	0.061667874
154	0xbc281a1d	-0.010260132
155	0x3d8cfd8b	0.06884297
156	0x3c724d33	0.014788914
157	0x3c9390fa	0.018013466
158	0x3d60b617	0.054861154
159	0xbbca2e22	-0.0061700502
160	0x3da0bec6	0.07848887
161	0xbcd9508c	-0.026527666
162	0xbafa2127	-0.0019083366
163	0x3c7d5425	0.015461956
164	0xbd1db76e	-0.03850501
165	0x3c9428bf	0.018085836
166	0x3c3a91e0	0.011387318
167	0x3dd99f2b	0.10626062
168	0x3cd93a56	0.026517075
169	0xbd50e56b	-0.05100004
170	0xbd847221	-0.06467081
171	0xbd6e8048	-0.058227807
172	0x3cc09118	0.023506686
173	0x3d4a35e9	0.04936782
174	0xbe250422	-0.16114858
175	0x3cda3e1e	0.026640948
176	0x3c8c4e2a	0.017127115
177	0xbbd883b7	-0.0066074985
178	0xbd5fb48b	-0.05461554
179	0x3d0558ba	0.03255532
180	0x3b9bf03d	0.0047588632
181	0xbdec5da3	-0.11541297
182	0xbb1eecde	-0.002425007
183	0x3d4dbf82	0.050231464
184	0xbdd7bf12	-0.10534491
185	0xbd33573c	-0.043784365
186	0x3b11e1ed	0.0022259906
187	0x3cf3952a	0.029734213
188	0xba952534	-0.0011378885
189	0x3bba589e	0.0056868335
190	0x3b28bea0	0.0025748387
191	0xbd1dac84	-0.0384946
192	0x3c9d2718	0.01918368
193	0x3c58d683	0.013234737
194	0x3d96b7a1	0.07359243
195	0xbd636ce8	-0.055523783
196	0xbd53d37b	-0.051715355
197	0x3c0c2711	0.008554236
198	0x3d57f393	0.052722525
199	0xbd0083bf	-0.031375643
200	0x3755e2c6	1.2748589e-05
201	0xbc6cdda9	-0.014457145
202	0xbc0132a8	-0.007885613
203	0x3d9091ef	0.070590846
204	0xb9a126b1	-0.0003073714
205	0xbd318cb9	-0.043347094
206	0xbc728075	-0.014801134
207	0xbb604940	-0.0034223348
208	0xbb677284	-0.003531606
209	0x3be5eb05	0.007016542
210	0x3d0338ee	0.032036714
211	0x3c2f18ff	0.010687112
212	0x3d77c84d	0.060493756
213	0x3d833da4	0.064082414
214	0xbc66e8f3	-0.014093625
215	0xbc897a89	-0.016782062
216	0xbd06032f	-0.03271788
217	0x3b902442	0.0043988535
218	0x3cf764a8	0.030199364
219	0x3dc980d5	0.09839026
220	0xbc9af766	-0.018916797
221	0xbbac563d	-0.005259304
222	0x3a873a40	0.0010317042
223	0x3d7129fd	0.058877934
224	0xb8f99800	-0.000119015574
225	0xbc882c29	-0.01662262
226	0x3d06e9c4	0.03293778
227	0xbd014705	-0.03156187
228	0x39ef3357	0.00045623883
229	0x3c8cc6eb	0.017184695
230	0x3c7bec2c	0.015376132
231	0xbcad5659	-0.021159338
232	0x3cec0cef	0.028814761
233	0xbd6b2cd1	-0.057415787
234	0xbd218859	-0.039436672
235	0xbd42668c	-0.047461078
236	0x3de91366	0.11380653
237	0xbcd54762	-0.026035015
238	0xbcfd24ad	-0.030901277
239	0x3c5ad56e	0.01335655
240	0x3e37f999	0.17966308
241	0x3db51c72	0.08843316
242	0xbd2a0956	-0.04151281
243	0xbbcf1884	-0.006320061
244	0x3c0937d6	0.008375129
245	0xbd8729e8	-0.0659979
246	0x3cb0f219	0.021599816
247	0xbca25951	-0.01981798
248	0xbcd846e7	-0.026400996
249	0xbc920c5e	-0.017828163
250	0xbc805609	-0.015666025
251	0xbbf00361	-0.0073246215
252	0xb8ca6f9d	-9.6529e-05
253	0x3b61d177	0.0034457126
254	0xbbbba068	-0.005725909
255	0x3e84be36	0.2592637

net.6.bias f4 [4]
0	0xc0f56534	-7.668604
1	0xc086c02a	-4.2109575
2	0xc08becc9	-4.3726544
3	0xc09152bb	-4.541349
