examples/full_project_setup/results/q_table.pt (torch, 21832 bytes, 6 tensors)

net.0.weight f4 [64, 6]
000000 e7 15 7c 3e 33 62 3b bf aa 40 bb bf 92 27 de 3e
       0.2461773 -0.73196715 -1.4629109 0.43389565
000010 f0 cc 1a bf 59 ff 90 be fe f7 9d 3e 38 e9 39 be
       -0.6046896 -0.28319815 0.30853266 -0.18155372
000020 08 86 b8 bf b5 60 44 3d 30 4a 7e be eb 7c 0e 3e
       -1.4415903 0.04794379 -0.24832988 0.1391484
000030 92 d1 7a 3e ab 96 31 3e 19 89 94 3e 59 b8 b2 3d
       0.24494007 0.17342632 0.29010847 0.08726568
000040 b5 60 5e bf 3a 31 f1 3d 1d 84 cf 3d 15 b8 ba be
       -0.86866313 0.11776967 0.101326205 -0.36468568
000050 4b 53 02 3e 76 d7 0c bf 0a 5c a5 bd c1 38 56 bd
       0.12727086 -0.5501627 -0.08074196 -0.05230022
000060 b1 ab 9a be bc fb ee bd f6 ea 8f be 80 2e bb 3b
       -0.30209115 -0.11669108 -0.28108948 0.0057123303
000070 d0 1f 95 3c df 3b 44 be 5a da 75 3b 12 d4 17 3e
       0.018203646 -0.19163464 0.003751418 0.14826992
000080 79 82 ef bc 81 9d c8 3d 1e 76 59 40 3b e1 cf 3e
       -0.029237019 0.097956665 3.3978343 0.40601525
000090 80 a2 c8 bb 9c b8 80 be f3 49 27 be 80 76 b9 be
       -0.006122887 -0.25140846 -0.16336803 -0.3622322
0000a0 ae f9 05 be 34 6f 7b 3e 12 56 c5 bc 80 05 3d 3e
       -0.13083526 0.2455414 -0.024088893 0.1845913
0000b0 79 10 ee bd 27 d2 31 3f bb 0d a8 3f 77 1b d7 3c
       -0.11624236 0.6946129 1.312919 0.026258213
0000c0 cb 4b ae bf 53 a7 42 bf c6 48 bf 3e c1 59 b6 bf
       -1.361688 -0.76036566 0.3736021 -1.4246141
0000d0 f7 7d 35 c0 47 37 a0 3e 7f 09 1a 3d 3f d7 19 bd
       -2.8358133 0.31292173 0.037606712 -0.03755879
0000e0 09 7f 3f 3e ff 7f b7 3d e3 6b 93 40 40 dc 3f 3f
       0.18700804 0.0895996 4.60692 0.7494545
0000f0 92 22 dc bc a5 a9 9b 3c 0c 36 85 bc e0 d5 7e 3a
       -0.026871953 0.019001791 -0.016261123 0.0009721201
000100 7a 3f 61 c0 11 e4 c1 be 47 fa 74 3e 91 47 cc be
       -3.5194993 -0.37869313 0.23923598 -0.3989835
000110 09 db 60 3e fe b6 58 bf ff 93 6e 40 5c ad 03 3f
       0.21958555 -0.84654224 3.727783 0.514364
000120 3d 76 93 be d6 b4 c7 be 3c 5e c5 be 1c 3e 7a 3d
       -0.28801146 -0.39005154 -0.38548458 0.06109439
000130 d8 73 22 bd 09 4d 8c be 3a 35 57 3b 51 65 2b 3b
       -0.03966126 -0.27402523 0.0032838122 0.0026152919
000140 03 80 64 bc a6 40 23 3c 72 57 42 3f 81 2f 3e 3f
       -0.013946536 0.009964144 0.7591468 0.74291235
000150 6a 40 d8 3d 09 6b 50 3e 57 c2 51 bc d5 76 08 be
       0.10559161 0.2035333 -0.012802682 -0.13326581
000160 0e 77 a5 40 a1 f4 a8 3f ad fa 74 3e 01 3a a8 3c
       5.170783 1.3199655 0.2392375 0.02053547
000170 e8 3a b2 bd cd e5 24 3e f3 ff de c0 b9 b7 00 40
       -0.08702642 0.16103287 -6.968744 2.0112135
000180 10 7b 40 3e e5 f7 92 3d 10 5e 8d 3e 1b ad 95 bf
       0.18796945 0.071761884 0.27610826 -1.1693453
000190 35 ef 37 c0 8e e9 a2 bf c5 6d e7 3e a0 25 33 bf
       -2.873975 -1.2727525 0.45200935 -0.69979286
0001a0 65 c6 a5 bf 03 a9 2d be 6e 62 53 bf 53 6a 39 3f
       -1.295117 -0.16959004 -0.82572067 0.7242786
0001b0 e4 2d d7 bd e8 cd 53 be b0 ad 98 be ea bc a5 be
       -0.105068 -0.20684016 -0.29820013 -0.32370692
0001c0 d0 4f c3 3e b0 38 4d 3e 3a 23 15 3e fb cf f7 bd
       0.3814683 0.20041156 0.14564219 -0.12100216
0001d0 96 3d 73 3e 8b dc 9e bf bb 8c 9d 40 4e 32 10 40
       0.23753962 -1.2411054 4.923429 2.2530704
0001e0 a4 f5 93 bd 4c a0 90 bd f0 e2 84 bc 40 c8 d9 bd
       -0.072245866 -0.07061824 -0.016221493 -0.10633898
0001f0 48 bd a6 3e c4 02 83 3e 8f 68 92 3c df 69 4f bc
       0.32566285 0.25588048 0.017872123 -0.012659519
000200 e8 04 ef bc 41 4a 43 3e c4 8d ae 40 ec 0a 4d 3f
       -0.029177144 0.19071294 5.4548054 0.8009479
000210 7e e3 cd bf 94 36 0d c0 83 20 83 3e 33 51 93 bf
       -1.608505 -2.2064562 0.25610742 -1.1509155
000220 f6 fc 0e c0 fc b9 5d 3c e6 e9 b5 3e 3b d0 bb 3e
       -2.2341895 0.013533112 0.35530013 0.36682305
000230 6b 15 ae bf c4 b8 fd 3e e2 07 a3 bf 5f 5b 82 be
       -1.3600286 0.49555027 -1.2736781 -0.25460336
000240 d2 2d 8d 3b 77 fe f4 3b ce 67 4b bc e4 e6 62 3c
       0.0043084407 0.0074766236 -0.012414886 0.013848994
000250 e6 a5 c2 40 a4 8f c6 3f 70 4f 01 3d 1b 27 05 be
       6.0827513 1.5512586 0.031569898 -0.13003199
000260 bc e7 a9 bc 47 4f 68 bd d1 30 cb be 28 0e a1 3d
       -0.020740382 -0.05671623 -0.3968568 0.07864028
000270 ca ee d0 bc f4 d4 17 37 5e d2 9b 3b 77 cb f1 bb
       -0.025504488 9.049883e-06 0.0047553023 -0.007378991
000280 34 38 b3 40 16 47 2e 3f 69 72 e3 3d 67 4a 65 3d
       5.6006107 0.6807722 0.111058064 0.05597916
000290 3c 1f b1 3d 1c 90 1a 3e e7 85 b3 3f 04 45 75 3f
       0.086485356 0.15094036 1.4025239 0.95808434
0002a0 c8 9b 91 3d be f0 97 3e 49 be 4d 3d 84 6c 2f 3e
       0.07109791 0.2967586 0.0502303 0.17131239
0002b0 9c 13 40 c0 cc 3b 76 bf ce a2 34 3e 19 94 d8 3e
       -3.0011969 -0.9618499 0.1764023 0.4230049
0002c0 06 12 56 bf 90 d1 b0 3e 69 ff 86 3e d5 7b fd be
       -0.8362125 0.34534883 0.26366737 -0.4950854
0002d0 25 66 09 3e d4 53 10 bf 6a 41 99 bf 9c 67 25 3f
       0.13417871 -0.5637791 -1.1973088 0.6461122
0002e0 4f 4e bc bf fc 4e 24 bb c6 fa cf be 8c 50 89 be
       -1.4711398 -0.0025071492 -0.40621012 -0.26819265
0002f0 4e fc ad be 3c 1a 91 bd 6e 03 c6 3e a0 50 04 bc
       -0.33981556 -0.07085082 0.38674492 -0.008075863
000300 da 93 72 3e 8f 8f 40 3d a4 33 78 3e 29 46 b5 bf
       0.23689213 0.04701191 0.2423845 -1.4162036
000310 c9 67 7d 40 77 0c 11 40 c1 f8 6a bc e0 83 ab 3c
       3.9594595 2.2663858 -0.014341534 0.020936906
000320 35 e7 f9 bc a0 99 94 3b 8b 6c 95 c0 fd f9 c8 bf
       -0.030505756 0.004534915 -4.6695 -1.570129
000330 f9 24 a4 bb 34 12 0a bc 0d 70 c6 bc b5 db 70 bc
       -0.0050092903 -0.0084271915 -0.024223352 -0.01470082
000340 60 7d f3 40 99 27 36 3f a6 37 01 bf d0 fe 01 3f
       7.6090546 0.7115417 -0.5047554 0.5077944
000350 e5 c5 eb 3e a7 d4 72 c0 9c a4 e7 bd 6e 4d 0c 40
       0.4604942 -3.7942293 -0.113106936 2.192226
000360 fb 46 d1 3d b5 83 bc bd d5 37 61 3e bf 06 84 bf
       0.102186166 -0.092048086 0.21993954 -1.0314559
000370 27 47 9a bf 78 70 82 3f f9 34 41 ba 82 b7 b5 be
       -1.2052964 1.0190573 -0.0007370259 -0.35491568
000380 8e 5a 2b bb 2b c2 2f bd e7 79 4c 3e 51 94 3a be
       -0.0026146504 -0.042909782 0.19968377 -0.1822064
000390 c7 09 ae 3e 27 31 6d 3e e0 40 1a bf 72 b7 a8 3e
       0.33991835 0.23163281 -0.6025524 0.32952458
0003a0 9a 32 b2 bf b0 05 42 3e 26 28 c9 bb fa 1c 0e 3d
       -1.3921692 0.18947482 -0.0061388193 0.034695603
0003b0 d5 80 d8 bc a9 83 76 3c 8b f7 a1 c0 1d 64 72 bf
       -0.02642862 0.015046039 -5.0614676 -0.9468401
0003c0 79 80 b3 3e b4 d9 be be 74 3e b3 3e 2d 2b 0b 3d
       0.35058954 -0.3727547 0.35008585 0.033976723
0003d0 20 fa 26 c0 5d bd 39 3e 74 93 1d 3e 07 09 c1 bc
       -2.6090164 0.18138643 0.1538828 -0.023563875
0003e0 78 1d 02 3e 0e 83 b9 bd db 12 91 3e 78 f7 42 3f
       0.12706554 -0.090582 0.28334698 0.7615886
0003f0 0a 1e a7 bb 9d f1 32 3c 9c 3b fb bc 00 aa 51 bd
       -0.0051000165 0.010921863 -0.030668072 -0.051187515

net.0.bias f4 [64]
000000 16 d3 93 bf 14 42 9d bf 4c 98 30 c0 0e 7c 57 3f
       -1.1548793 -1.228579 -2.7592955 0.8417367
000010 a4 04 9d be 8f c4 04 41 88 49 a4 3d 48 52 84 c0
       -0.30667603 8.297988 0.080218375 -4.135044
000020 3f 76 47 c0 62 b9 a3 bf 27 19 f2 40 c6 06 8b c0
       -3.1165922 -1.2790949 7.5655704 -4.344577
000030 26 1c 2f be 8e 43 f2 40 f1 67 a2 40 74 c4 ed 3f
       -0.17100582 7.5707464 5.075188 1.8575578
000040 c3 2d cb c0 8d 92 9d bf d1 9c 65 be 6d 57 3b c0
       -6.349336 -1.2310349 -0.22423102 -2.927211
000050 29 11 32 be ae 34 51 40 a1 f2 30 c0 20 98 b0 c0
       -0.17389359 3.2688403 -2.764809 -5.51857
000060 7f 23 8f 40 59 83 eb 40 6a fa df 40 e7 04 d2 c0
       4.473083 7.3597836 6.999318 -6.5630984
000070 86 64 a0 c0 0a 82 04 c0 57 6f bc bf 14 c2 0a 3e
       -5.012271 -2.070437 -1.4721478 0.13550597
000080 02 8d 80 c0 5a f7 c4 40 c7 69 09 40 3c 89 c0 c0
       -4.017213 6.1551943 2.1470811 -6.0167522
000090 ac 63 82 c0 90 18 03 bf 21 a0 98 c0 a1 a4 c7 40
       -4.074667 -0.51209354 -4.769547 6.2388463
0000a0 9c 70 11 c1 08 d8 01 40 a3 c1 ea 40 22 53 43 40
       -9.089993 2.0288105 7.3361373 3.051949
0000b0 12 aa df c0 4f 92 8d c0 ba 0d 65 c0 2e 36 a0 c0
       -6.9895105 -4.42411 -3.5789628 -5.0066137
0000c0 cb 1d 92 c0 42 a9 02 41 2c cb 07 41 cf ff 60 40
       -4.566137 8.166323 8.4871025 3.5156133
0000d0 12 f9 14 bf c8 af 46 be 88 96 5a bd 9e 5d 90 c0
       -0.5819255 -0.19402993 -0.053366214 -4.511428
0000e0 33 3c fa bf 14 83 08 41 70 4e 9b bf 17 f3 a2 3f
       -1.9549621 8.5320015 -1.2133312 1.2730435
0000f0 b7 e2 26 bf df 27 7c 40 61 bf c7 c0 5a 9e 79 c0
       -0.6518969 3.9399335 -6.2421117 -3.90029

net.3.weight f4 [64, 64]
000000 9e 6c a8 bd f4 db 2f be 7a 0c 44 bd c7 1f db 3c
       -0.08223842 -0.17173749 -0.04786346 0.026748551
000010 4c 45 da bd 35 23 f7 3e 98 14 02 bd a4 5b 19 bd
       -0.106577486 0.48269048 -0.03175792 -0.03744091
000020 6b 7e b5 bd 9b d4 92 bc c2 40 15 3f df c8 58 3d
       -0.08862003 -0.017923644 0.5830194 0.05292594
000030 62 0e 76 3d e4 15 1c 3f 76 1d c8 bc ff b7 44 bd
       0.06007231 0.609709 -0.02442811 -0.048027035
000040 07 19 8a 3d a9 c6 52 bd 54 52 4f 3d 2d 03 1d bd
       0.06743055 -0.05145899 0.050615624 -0.038333107
000050 9a a4 e7 bd 59 8d f9 3d 2f 0a 12 be bd 25 54 bd
       -0.11310692 0.12185163 -0.14261697 -0.051793803
000060 1a 93 a2 3e c2 8c 0f 3f 81 7f a8 3d d5 07 81 bd
       0.31752855 0.56074154 0.082274444 -0.06300322
000070 30 c7 5f be cf 1f 1d be d6 a5 15 be f0 21 ff bc
       -0.21853328 -0.15344165 -0.14614043 -0.031144112
000080 7a cd 0d 3e fc 98 08 3f 5f 9b c2 3e 6f 61 63 bd
       0.13847914 0.53358436 0.38009164 -0.05551284
000090 5e 3e f2 bd 9d 95 ae 3d 0e d4 b6 39 d8 30 a9 3e
       -0.11828302 0.0852463 0.00034871738 0.33045077
0000a0 b8 2a e4 3c df 5b 83 bc 9c 8c 06 3f 77 90 22 3d
       0.027852401 -0.016035018 0.525583 0.039688554
0000b0 17 c8 b4 bd 78 39 f0 3c 6b 52 cb bd ef 7c 7b 3d
       -0.088272266 0.029324278 -0.09927829 0.061398443
0000c0 25 ec e5 bc f7 37 05 3f 91 bb f8 3e 90 de 0e 3e
       -0.028066704 0.5203852 0.48580602 0.13952088
0000d0 87 76 0f be ba a5 5b bd 7c ff f8 bd 25 66 8e bd
       -0.14010058 -0.053624846 -0.12158105 -0.06953076
0000e0 f3 1c ca bd b4 be 2c 3f 9d 3f 5b bd 92 cc 08 bd
       -0.09868803 0.6747849 -0.053527463 -0.03339822
0000f0 cd c7 b3 3d 41 5d 7b 3e fe b7 eb bd d1 9f 76 bd
       0.08778343 0.24547292 -0.11509703 -0.060211007
000100 0b f4 fc bd df 96 bb bd 12 76 22 3d 66 52 49 3d
       -0.12351235 -0.09159636 0.039663382 0.049150847
000110 b6 f2 e3 bd 34 94 d7 bd 10 b5 a5 bd 04 93 5b bd
       -0.11130278 -0.105263144 -0.080911756 -0.053607002
000120 e0 f6 f8 3b 70 52 39 be 02 52 21 bc 72 a4 d7 3c
       0.007597789 -0.18097854 -0.009846212 0.02632353
000130 e0 17 cd bd c6 bd ec bc d8 82 62 bc 5b d7 1d be
       -0.100143194 -0.028899085 -0.013825141 -0.15414183
000140 95 fb c6 bc 65 9b 65 3d aa 89 f0 bd de 51 76 bc
       -0.024289886 0.0560564 -0.11745007 -0.015034167
000150 e6 63 c0 bd b6 fe 45 3d 06 62 12 be 11 1f b0 bb
       -0.09394054 0.048338614 -0.14295205 -0.005374797
000160 2e 51 74 bd 76 85 ba bd e4 36 98 bd 3e 81 bb bd
       -0.05964773 -0.09107487 -0.074323446 -0.0915551
000170 ec fc 14 3d c8 04 8a 3d 03 3d 90 3d 60 10 56 bc
       0.036374018 0.06739193 0.07042887 -0.013065428
000180 5a 1c 6d bd 0b 45 48 bd 25 15 f0 bd 03 30 1a 3d
       -0.057888366 -0.04889397 -0.11722783 0.037643444
000190 1b e7 21 3c aa d1 20 bd d3 c7 33 bd 4b 98 0d 3d
       0.00988176 -0.03926245 -0.04389174 0.034569066
0001a0 5f 18 90 bd 70 d7 d3 bd 56 80 4c be 79 76 3a 3b
       -0.070358984 -0.10343826 -0.19970831 0.0028451963
0001b0 29 bf 09 be 7f 33 e0 bd 77 01 f4 bd d0 21 e5 bd
       -0.13451828 -0.10947322 -0.11914342 -0.1118809
0001c0 de ad 67 bd b0 ad 19 be a8 ac dd bd ea 46 de bd
       -0.056562297 -0.15007663 -0.10823947 -0.108533695
0001d0 a8 5f cc bd db 6d 09 be c6 76 f2 bd 6d 98 0a 3d
       -0.099791825 -0.13420813 -0.118390605 0.03383677
0001e0 0c 88 e1 3d a2 14 e9 bd e5 d6 a5 bd 63 6e 52 bd
       0.11012277 -0.113808885 -0.080976285 -0.051374804
0001f0 39 19 45 bd 52 57 92 bc 07 11 b4 3c f8 fc d8 bd
       -0.048119757 -0.017863903 0.021980776 -0.10595125
000200 f8 c5 1a 3d a8 82 22 be 1e 98 e8 bc 8d 1d 27 3c
       0.037786454 -0.15870154 -0.028392848 0.010199917
000210 7c 2c ed bd 98 7f 46 3e 4c 54 d3 3d a0 9f aa bd
       -0.1158075 0.1938461 0.10318813 -0.08331227
000220 23 f3 01 3d 36 19 87 bc 63 17 c4 bc 83 f5 0a be
       0.031726014 -0.016491514 -0.023936933 -0.13570218
000230 d4 cb 6d bd a8 21 53 be 0f b0 23 3d 5c 62 5a bd
       -0.058055714 -0.20618308 0.039962824 -0.05331646
000240 49 1f fb bc ed 45 1f 3d 3e c5 af bd 17 31 0b be
       -0.030654566 0.038885046 -0.08582543 -0.13592945
000250 54 8d a2 3d c6 57 74 bc 86 ab 59 3d 1a 4a 15 bd
       0.079371125 -0.014913505 0.053142093 -0.036447622
000260 9d 5c 1b 3d 30 49 94 3d 78 97 04 3d 1e db 15 be
       0.03793012 0.07240522 0.032371014 -0.14634368
000270 76 6d ac bb f5 35 17 bc 54 d0 a5 bd f0 f9 1e bc
       -0.005262072 -0.009229173 -0.08096376 -0.009703144
000280 b4 bf 42 be a9 cf 30 3c 14 47 ec bd fa 1d 48 3e
       -0.19018441 0.010791698 -0.115369946 0.19542685
000290 aa f4 5e bd 46 53 93 bc 51 b0 df 3c 5a c6 ac bd
       -0.05443255 -0.017984044 0.027305754 -0.0843627
0002a0 cb 17 10 be 86 0b 92 bd e2 6f 6b bd 93 f9 39 be
       -0.14071576 -0.07131104 -0.057479747 -0.18161611
0002b0 2c 54 eb bc 4c 4a db bd f9 aa c2 bd 49 b2 c1 bd
       -0.02872666 -0.107075304 -0.09505267 -0.09457833
0002c0 97 83 c5 3c 89 99 86 3e 48 1b 18 3d d8 fa 0b be
       0.024110598 0.26289013 0.037135392 -0.13669908
0002d0 18 96 a6 bb 5e 7f b0 bd c8 1c d6 bd 2f 1f cf 3d
       -0.0050838105 -0.08618043 -0.10454708 0.1011337
0002e0 ef b3 b4 bd 11 63 01 bd 8c 8a c4 bc 8f 4f c1 bd
       -0.08823382 -0.031588618 -0.023991846 -0.09439003
0002f0 d5 b0 b2 bd e5 7c fd bd 97 5c ad bc 1e b9 27 bd
       -0.08725134 -0.12377337 -0.021162314 -0.040948026
000300 9d aa 60 bc b0 37 21 bd 2f 44 6b bd e6 9b f3 be
       -0.013712552 -0.03935975 -0.05743807 -0.4757988
000310 74 41 1d 3d 06 6d 8c 3d 54 f5 98 bd 90 73 ed bd
       0.0383925 0.06856732 -0.074686676 -0.115943074
000320 b8 29 c3 bb 5a 65 e5 bd 34 c0 f2 3e ce 88 1e be
       -0.005955901 -0.11200972 0.47412264 -0.15481874
000330 f0 41 89 3d eb b4 0d 3e d2 6b d8 bc b7 4a b0 3e
       0.0670203 0.13838546 -0.0264186 0.34432003
000340 7a 39 07 bd c3 e4 6f 3c c6 85 f7 bd 6d 2d 11 be
       -0.0330138 0.014641943 -0.12086062 -0.14177485
000350 00 d0 a9 bd 7b 8b 8c bd d3 16 12 bd a4 30 20 be
       -0.08291626 -0.06862541 -0.035666298 -0.15643555
000360 34 c0 4b bd e7 9d 17 3f 17 90 5b bd 1a 4a 22 be
       -0.049743846 0.59225315 -0.05360421 -0.1584858
000370 fc 6a 08 3d 44 5d 1f be 32 69 55 bb 6c fd f7 bd
       0.033305153 -0.15562922 -0.0032563922 -0.12108883
000380 c8 70 cb bd 0f 7c 77 3f 9b e9 df bc 4e 1c 29 be
       -0.09933621 0.96673673 -0.027333071 -0.16514704
000390 72 8e 38 be 9b 35 47 3d 19 2f da bd 6e 95 b0 3f
       -0.18023089 0.048635107 -0.106535144 1.3795602
0003a0 f3 41 91 bd 65 2f db 3b 42 bd c5 3e be 4c 21 3b
       -0.07092657 0.0066889995 0.38620955 0.0024612392
0003b0 39 57 92 3b b0 df 16 bd 4f d5 1d bd 33 a2 de 3c
       0.004465964 -0.03683442 -0.038533505 0.027176952
0003c0 35 18 fa bc 87 0b 9a 3e 62 c9 34 3e e5 a9 ae bd
       -0.030529121 0.3008692 0.17654946 -0.085284986
0003d0 98 a8 50 be c3 9d 1a be 60 a9 a2 bc 22 0a b9 3d
       -0.20376813 -0.15099244 -0.019856155 0.09035136
0003e0 aa 58 6f bd 77 69 17 3f 70 ad 84 be 71 14 c9 bc
       -0.058434166 0.591453 -0.25913572 -0.02454588
0003f0 d6 26 82 3d 28 a3 fa bd a2 c0 0d be f9 75 e2 bd
       0.063550636 -0.12238151 -0.13843015 -0.11057658

net.3.bias f4 [64]
000000 77 94 28 40 01 b1 96 be cf 2a 4b 3e ff 1b 2a 3f
       2.6340616 -0.29431918 0.19840549 0.6644897
000010 fa fe 3f bd f9 b8 21 be 1c 32 14 3e ff 3e e2 3f
       -0.046874024 -0.15793218 0.1447224 1.7675475
000020 92 6e 4a 40 20 e3 ae bd 2e af 32 be 69 21 0a 3d
       3.1629987 -0.085394144 -0.17449638 0.03372327
000030 f4 39 19 3f fb 50 36 40 7a c2 80 be 16 6c 1c 40
       0.59854054 2.8486927 -0.25148374 2.444097
000040 5b 9c 01 41 68 cb 58 3c 9b cb b0 3d 3b 2d c9 3f
       8.100673 0.01323209 0.08632585 1.5716928
000050 09 6a 75 3f 0b 09 e4 3c 8b 17 bf bd 1f e6 06 3c
       0.9586492 0.027836343 -0.09330662 0.008233576
000060 ef c9 62 be 79 e9 83 bd cd 3a 9f 3b 11 5e 8e be
       -0.22147344 -0.06441016 0.0048593045 -0.27806142
000070 99 62 ac bd 62 83 25 bd eb fd 69 bd b2 52 89 3e
       -0.084172435 -0.0404085 -0.05712692 0.26820904
000080 7f 70 04 3f 9c a2 13 3d 7c c7 58 3b af 2a 82 ba
       0.51734155 0.03604375 0.0033077886 -0.0009930934
000090 22 cb 12 be 23 e6 74 bd db be 17 41 6a 80 46 3f
       -0.14335302 -0.059789788 9.484096 0.77539694
0000a0 e3 50 15 be 36 0a 8a 3f 20 04 28 bf 6c b3 d8 3e
       -0.14581637 1.0784366 -0.65631294 0.42324388
0000b0 7d 78 a2 bd 9d 22 65 bd 19 b2 a5 3e 44 8a 8b 3e
       -0.079331376 -0.055941213 0.3236244 0.27253926
0000c0 9c 65 41 3f 0c b3 19 40 83 43 a2 3e 4c 8b 43 3d
       0.7554567 2.4015532 0.31692132 0.047740266
0000d0 b8 76 dc bd c4 98 5d bd e5 cc 9b 40 89 02 c8 3f
       -0.10764831 -0.054100767 4.8687615 1.5625774
0000e0 f3 c6 60 3f bf 7e 07 be 8a 6e b7 be 95 76 ac be
       0.8780357 -0.13231944 -0.35826522 -0.3368422
0000f0 e8 4e 80 be fa 31 22 bc fe 93 37 be 36 15 ce 3e
       -0.250602 -0.009899611 -0.17927548 0.40250558

net.6.weight f4 [4, 64]
000000 e2 e0 47 3e f7 db 90 bd f1 09 43 3b b4 67 7f bf
       0.1951938 -0.07073205 0.0029760564 -0.99767613
000010 ae eb 5a bd 29 4f 32 bd 4e 42 df bd 12 7c a0 3e
       -0.053447418 -0.043532524 -0.109013185 0.31344658
000020 04 e6 9d 3e 8c 52 56 bd d8 7c d2 bc ae fb 68 bc
       0.3083955 -0.052324817 -0.025694296 -0.014220161
000030 8e b5 73 3d 8b cc 81 3e 5a a9 85 3b 71 7e 7f 3e
       0.059499316 0.25351366 0.004079026 0.24950577
000040 c7 8c 85 3d f6 bd 71 3c 46 72 e6 bc 72 97 2f 3e
       0.06520992 0.014754763 -0.028130662 0.17147616
000050 79 ab 47 3e ac e2 9e bd 37 3a 6a bc bd 46 c9 3c
       0.19499005 -0.07758078 -0.014296106 0.024569863
000060 9f 17 f1 3b a0 8b 7c bb 68 3e 9c 3c 46 fa 6b bd
       0.007357552 -0.0038535371 0.019072726 -0.057611726
000070 b4 2b a7 bc 11 97 03 bb 0d c2 79 3c f3 7c 6b 3d
       -0.020406581 -0.0020079056 0.015244019 0.057492208
000080 8b 37 3d bf a0 bc 09 bd ff 0e 22 bd 91 82 1a bc
       -0.73912877 -0.033627152 -0.039565083 -0.0094305435
000090 ed 02 fa ba bc e6 a5 bc 83 0d f7 3e 9d 1b c9 3e
       -0.0019074358 -0.020251624 0.48252496 0.3927888
0000a0 f6 a3 e2 bd 5e 09 cb 3d 21 4c 47 be ec e8 b7 3d
       -0.11066429 0.09913896 -0.19462635 0.08979973
0000b0 53 ce b5 bc ff 7c 10 bc 18 ed 8b 3d f4 4b ad 3d
       -0.02219311 -0.008818864 0.068323314 0.084617525
0000c0 9f 20 da bc ad f2 96 bc 5f 83 47 3d b5 62 df ba
       -0.026626883 -0.018426264 0.04870927 -0.0017042967
0000d0 4b cb 80 3c 11 09 cd bc 65 36 00 3e 7f c6 90 bf
       0.015721938 -0.025028737 0.1252075 -1.1310576
0000e0 0d 52 d7 3c c8 51 aa 3d c6 d4 8e ba 06 5e 38 3d
       0.026284242 0.0831638 -0.0010897152 0.045011543
0000f0 32 55 c5 bb db 14 ec bd 5a 65 22 bd 73 a7 34 3b
       -0.006022119 -0.11527415 -0.039647438 0.0027565628
000100 96 20 0d 3e 72 ef 60 bd 45 9d bb bd fb 7d 0f 3e
       0.13781962 -0.054915853 -0.09160856 0.14012901
000110 84 c0 37 3c 43 70 ae 3c 27 a3 f6 bd d0 ec 32 3e
       0.011215333 0.021293765 -0.120428376 0.1747315
000120 86 4c b1 3d b7 b7 03 bd 36 e7 7b 3c 32 2d 0c 3d
       0.08657174 -0.032157626 0.015374949 0.03422279
000130 ac 99 ec 3d f6 5c 39 3e e9 ea 48 3a 1d 38 b3 3d
       0.11552748 0.18101868 0.0007664399 0.08750937
000140 4f 44 92 3d c4 67 b0 bb fa b0 2b 3d 5e 4e fd 3c
       0.07141935 -0.0053834636 0.041916825 0.030921157
000150 3c ca 07 3e dc 16 ba 3c 10 9b 64 bb 49 12 38 3c
       0.1326074 0.022715978 -0.0034882464 0.011234828
000160 d3 b5 ee 3a 29 43 51 3e 64 6c 42 39 d4 61 a8 bc
       0.0018212147 0.20435776 0.0001854166 -0.02055446
000170 e9 06 90 bd 41 c3 8b bc 56 48 80 3c fa e4 84 3d
       -0.07032568 -0.017060878 0.015659492 0.06488986
000180 a8 bc 1f be 35 5f db 3c 31 c5 78 3c 33 14 25 3c
       -0.1559931 0.026778797 0.015183733 0.010075617
000190 3d 84 79 bc bb 46 20 3c e9 bb 3e 3e a9 cc 9d 3e
       -0.015229282 0.009782488 0.1862637 0.30820206
0001a0 7c b0 78 bd 0f 24 9d 3d a1 a9 1c be 4f 18 3d 3d
       -0.060715184 0.07672893 -0.15299083 0.04616576
0001b0 5d 57 55 bc 6a ab fa 3c ad fb 4a 3c 15 28 40 3d
       -0.013021317 0.030599315 0.012389106 0.046913225
0001c0 7e 93 b2 bb 07 ce f4 bc a4 40 2a 3c 9a da 81 ba
       -0.0054497113 -0.029883398 0.010391388 -0.0009907067
0001d0 78 2b 1c bb aa 48 11 bd da c0 a4 3d f1 55 a3 3d
       -0.002382962 -0.03546969 0.08044596 0.079753764
0001e0 b2 5c 84 3e 2f c3 98 3d c3 60 e0 3c 35 45 c4 3c
       0.2585197 0.07459103 0.02738989 0.023958782
0001f0 8f 02 ad 3c 20 d6 49 3c 11 0a 31 bd 09 02 f9 bb
       0.021119384 0.012319118 -0.04322249 -0.0075991196
000200 e7 3b f4 3d 3a 47 e9 3d f6 4a 44 3d be b6 19 3e
       0.11925488 0.113905385 0.04792305 0.15011117
000210 07 05 a0 bd a6 47 ca 3a 2b 99 82 bd c3 d0 a9 bc
       -0.07813459 0.001543273 -0.06376871 -0.020729428
000220 76 0b 09 3e 40 0e 03 bd 8f 87 d4 3c 26 cb 7d 3c
       0.13383278 -0.03199601 0.025943546 0.015490329
000230 32 6f ba 3d 8a a4 6e 3e d0 05 50 bc d0 23 54 3e
       0.0910324 0.23304954 -0.012696698 0.20716786
000240 d9 a2 bd 3d 4d 53 02 bc 59 a0 45 be 09 e0 86 3c
       0.09259576 -0.007954431 -0.19299449 0.01646425
000250 a3 19 93 3e df 84 86 3c 1d 1f f4 bc 91 cf 65 bd
       0.28730497 0.01642078 -0.029799992 -0.056106154
000260 f4 65 69 bd 2f 2a 72 3d 42 ea bf 3b a1 35 eb bc
       -0.056981996 0.05912226 0.005856783 -0.028712096
000270 f2 b7 84 3d 73 41 51 bd c6 0e d8 bc 4e 0a a8 3d
       0.06480397 -0.051087808 -0.026374232 0.082050905
000280 69 86 85 be 8d 49 36 3d 24 15 2e bc b0 f3 96 3c
       -0.2607911 0.044503737 -0.0106251575 0.018426746
000290 35 58 b9 bd 27 4b cc bb 25 c3 3a 3e 87 85 74 3e
       -0.09050027 -0.006234545 0.18238504 0.23879062
0002a0 30 a4 d2 bd 6c 1d 09 3d 0d 56 30 bd a6 00 12 3e
       -0.102852225 0.033475325 -0.043050814 0.1425806
0002b0 35 ea fc 3d 24 76 07 bd a1 33 55 3d 17 21 4a 3c
       0.12349359 -0.033071652 0.05205119 0.012336991
0002c0 15 c8 dd ba 7a cc 3a bc 38 92 0d 3d b2 9c f5 3d
       -0.0016920591 -0.01140129 0.034563273 0.11992778
0002d0 08 ef 61 bc 5e 83 17 bc 34 87 01 3e 33 8a 48 3d
       -0.0137899 -0.009247629 0.12649232 0.048959922
0002e0 27 74 72 3e 7a b5 86 3c 11 a2 bc 3c 8c 74 12 ba
       0.23677121 0.016443957 0.023026498 -0.0005586825
0002f0 47 a1 1b bd 3d 9b 81 bd 78 0c 72 bc 23 e5 8d bc
       -0.037995603 -0.063284375 -0.014773481 -0.017321175
000300 63 dc d0 3d aa f7 96 bc 95 64 97 3d 45 ae c9 3d
       0.101982854 -0.018428642 0.073922314 0.098476924
000310 d3 24 dc bc 87 14 15 3d 3e cc 4c 3d af c4 1b 3e
       -0.026873028 0.03639653 0.049999468 0.15211748
000320 5d 01 6d 3e 28 02 c5 bc 0d e1 72 bc 44 e7 95 bd
       0.23145051 -0.02404888 -0.014824164 -0.07319501
000330 4d b1 90 3e 65 d9 f7 ba 34 4f 98 bc 62 c3 37 3d
       0.2826027 -0.0018909393 -0.018592454 0.044864066
000340 00 6e c8 3d 56 8f b2 3d c1 36 84 3d a4 0c 47 3c
       0.09786606 0.087187454 0.06455756 0.01214901
000350 37 17 4f 3e 3f db f5 bb 61 d1 51 3d af 61 88 3d
       0.202237 -0.007502943 0.05122507 0.06659257
000360 1b a2 86 bd 6c e1 53 3d 11 d6 9b bd 1a d0 7d bd
       -0.06573888 0.05172865 -0.07609189 -0.06196604
000370 f6 59 05 3d a8 d2 4a 3c 6b b3 fa 3c 17 69 b6 3d
       0.032556497 0.012379326 0.030603131 0.08906763
000380 09 2b a1 3b 3a 22 d3 bb 5f dd 48 3d 72 7f c3 bd
       0.0049184603 -0.006443289 0.04903924 -0.09545793
000390 a3 0c 90 bd 13 f6 92 bd a6 64 25 3d 97 78 b3 bb
       -0.0703366 -0.07175841 0.04037919 -0.005477022
0003a0 83 43 06 3d ba 3f 66 3d fe e6 59 3c 0d 10 73 bd
       0.032779228 0.056213118 0.013299702 -0.05934148
0003b0 f4 4d 36 bc 04 e3 f0 bc e0 ca 90 bd 6c 89 9c 3c
       -0.011126984 -0.029405124 -0.07069945 0.019108497
0003c0 a5 65 b0 3d ec e2 1f 3d 1b 4f f1 b9 89 d8 83 bc
       0.08613137 0.03903477 -0.0004602604 -0.016094463
0003d0 14 eb f3 bc 5e 70 b6 bd 2f 51 12 3e 68 2b d0 3d
       -0.02977518 -0.08908151 0.14288782 0.10164529
0003e0 1a 50 03 3d fa 1c af 3c 4f ff 98 3c c1 b6 7e 3b
       0.032058813 0.021376122 0.018676428 0.0038866254
0003f0 8a c6 4a 3d 82 dd 54 3d b5 7f e2 bc df 19 66 bd
       0.049505748 0.05196906 -0.027648786 -0.056177016

net.6.bias f4 [4]
000000 10 17 21 c1 d4 5d 20 c1 85 66 1a c1 e2 8d 27 c1
       -10.0681305 -10.022907 -9.650029 -10.472139
