examples/full_project_setup/results/q_table.pt (torch, 21576 bytes, 6 tensors)

net.0.weight f4 [64, 6]
-0.15125 -0.24785987 -0.16182427 -0.37057656 0.116803765 0.10156113 -0.027744995 -0.107383
-0.126894 0.40161553 -0.064896315 -0.13954943 -0.13209262 0.16338295 -0.30158478 -0.26989132
0.36493832 0.31425655 -0.011565678 -0.2796041 -0.08001175 0.35282946 -0.37435055 -0.4712641
-0.0048117656 0.03722154 -0.10167203 0.24869208 -0.3271813 0.12654832 0.061593518 0.16764084
0.078062095 -0.24515368 0.49946767 -1.0822245 0.13908584 0.54203117 -0.053620964 -0.0024876099
-0.37169486 -0.7984041 -0.35725743 -0.13541555 -0.11465296 -0.3082687 0.043240905 0.32750195
0.06522166 -0.23335902 -0.3283189 0.2251719 -0.42169702 -0.009909686 -0.3468196 -0.023656964
-0.341291 0.0900023 -0.1930001 -0.35320082 0.20635839 -0.47776464 0.07114335 -0.44612256
-0.269761 -0.018302869 -0.030848354 0.14500904 -0.30693632 -0.37518737 -0.16481091 0.30546987
0.22602826 -0.32811016 0.03581403 -0.48283976 0.06960256 0.67576253 -0.37938672 -0.36512345
-0.098162144 -0.19773544 0.13037091 0.16365534 -0.0062912405 -0.76845556 0.19318336 -0.21472941
-0.45920697 0.59369415 -0.14563702 0.14212987 -0.17773356 -0.13519093 0.07436025 0.33403045
-0.0032614665 -0.19652683 -0.074124694 -0.54939777 -0.14968029 0.012645135 0.07139218 -0.10323208
-0.27689898 0.09188138 0.60686445 1.7756591 -0.22153226 0.23052607 0.023882367 0.41727516
0.17980398 -0.45909536 0.20361443 -0.36663657 0.0773822 -0.5534123 -0.3348721 0.45348
0.041855585 0.47237307 -0.06409118 0.09335304 0.016230362 -0.67076546 -0.19782981 -0.024245024
-0.19959038 -0.022419214 -0.064299315 -0.14944032 -0.0020134784 0.22320123 0.104934596 0.32679522
-0.48315674 0.37857965 -0.001304803 0.4777455 -0.26272228 0.37764356 0.035029676 1.3705117
-0.6511389 -0.35232046 0.15821443 -0.0534794 -0.7424411 0.19579612 0.07949976 -0.34532282
-0.6321017 0.37876064 0.25515142 -0.3877624 -0.6140666 0.3028242 0.15007392 -0.47192022
-0.07530616 0.24251063 -0.15410197 0.049598634 -0.18660589 0.05145186 -0.211541 -0.21386708
0.021566564 0.29529053 0.24764301 -0.428436 -0.3292193 0.4892365 0.14294867 -0.29746777
0.23114856 -0.519687 -0.59493506 -0.12885611 -0.01653922 -0.49922517 0.13579151 -0.26786065
-0.47213644 0.3812957 -0.41090497 0.32870004 0.02301724 -0.1994673 -0.18525817 0.93862253
0.093113214 0.012125907 -0.24070726 0.15050603 0.6986873 1.1347488 -0.007954809 0.7304401
-0.08355795 0.26119292 -0.21909375 0.11151944 0.11533476 0.04119918 -0.3125894 -0.2862417
0.7235706 1.7650869 -0.114318706 0.18909255 -0.002753649 0.37264428 0.49321118 -1.1524521
-0.2506237 0.12893867 -0.22558333 -0.26733327 -0.2095111 -0.39963537 -0.21002543 0.12842357
0.053788636 0.20850632 0.52239054 -0.5791088 -0.1803732 0.021404475 -0.185709 -0.30413127
-0.24743734 0.28220338 0.0075723534 0.47089052 -0.11803238 -0.31924742 0.15735827 0.26582554
0.12338689 -0.22206059 0.023370564 -0.46786788 0.1103697 -0.089538895 -0.45469284 -0.0011917085
0.14057468 -0.35899878 -0.24023546 0.49392098 -0.55318254 -0.43752158 0.10993389 0.061453745
00000000: 48e1 1abe face 7dbe 43b5 25be 36bc bdbe
00000010: d036 ef3d 48ff cf3d 7949 e3bc 9eeb dbbd
00000020: 80f0 01be 8da0 cd3e 5ce8 84bd 0ce6 0ebe
00000030: 4a43 07be dc4d 273e 5269 9abe 322f 8abe
00000040: 32d9 ba3e 3ce6 a03e f87d 3dbc 4528 8fbe
00000050: 33dd a3bd 10a6 b43e e0aa bfbe 8749 f1be
00000060: 04ac 9dbb 9d75 183d 6d39 d0bd 23a9 7e3e
00000070: 4f84 a7be e295 013e 7c49 7c3d 0aaa 2b3e
00000080: 05df 9f3d 9109 7bbe 3aba ff3e 5586 8abf
00000090: 856c 0e3e 8ec2 0a3f a8a1 5bbd 2b07 23bb
000000a0: ca4e bebe 3664 4cbf 72ea b6be 60aa 0abe
000000b0: 2ccf eabd 65d5 9dbe 601d 313d 56ae a73e
000000c0: ef92 853d abf5 6ebe 6a19 a8be 7693 663e
000000d0: ace8 d7be 3c5c 22bc 5792 b1be 40cc c1bc
000000e0: b2bd aebe 2053 b83d d1a1 45be bdd6 b4be
000000f0: 9d4f 533e 919d f4be 9bb3 913d 2d6a e4be
00000100: 1d1e 8abe e6ef 95bc b0b5 fcbc 407d 143e
00000110: c226 9dbe 8f18 c0be 31c4 28be 8c66 9c3e
00000120: f473 673e 0efe a7be bbb1 123d c636 f7be
00000130: c98b 8e3d c6fe 2c3f fa3e c2be 76f1 babe
00000140: 3c09 c9bd 297b 4abe f47f 053e 4495 273e
00000150: c026 cebb 81b9 44bf dcd1 453e 07e2 5bbe
00000160: 2d1d ebbe 57fc 173f df21 15be 7e8a 113e
00000170: c9ff 35be 7e6f 0abe 304a 983d 0a06 ab3e
00000180: 54be 55bb 543e 49be b0ce 97bd 55a5 0cbf
00000190: ca45 19be 8a2d 4f3c 1036 923d 576b d3bd
000001a0: b4c5 8dbe 4e2c bc3d 785b 1b3f cc48 e33f
000001b0: 5ad9 62be 070f 6c3e f4a4 c33c 17a5 d53e
000001c0: 891e 383e 8c0e ebbe 4d80 503e cab7 bbbe
000001d0: 8f7a 9e3d 6eac 0dbf 5b74 abbe 882e e83e
000001e0: c370 2b3d e2da f13e 3d42 83bd e12f bf3d
000001f0: 89f5 843c 49b7 2bbf e693 4abe 809d c6bc
00000200: 6c61 4cbe 80a8 b7bc 5caf 83bd e206 19be
00000210: 90f4 03bb dd8e 643e f3e7 d63d b451 a73e
00000220: 5260 f7be 31d5 c13e ec05 abba 0f9b f43e
00000230: 8983 86be 7f5a c13e 477b 0f3d ed6c af3f
00000240: 0ab1 26bf 5963 b4be f702 223e 370d 5bbd
00000250: 9f10 3ebf c77e 483e c5d0 a23d 27ce b0be
00000260: 6bd1 21bf eaec c13e 35a3 823e cb88 c6be
00000270: 7833 1dbf c60b 9b3e faac 193e 879f f1be
00000280: 1e3a 9abd b554 783e e8cc 1dbe f027 4b3d
00000290: 9d15 3fbe 30bf 523d 349e 58be f9ff 5abe
000002a0: 5dac b03c 5230 973e 2196 7d3e f75b dbbe
000002b0: 6f8f a8be 357d fa3e 2361 123e b24d 98be
000002c0: 35b2 6c3e 350a 05bf aa4d 18bf dbf2 03be
000002d0: 427d 87bc 719a ffbe ee0c 0b3e 0825 89be
000002e0: debb f1be 3139 c33e 2362 d2be 5f4b a83e
000002f0: a78e bc3c 2841 4cbe 51b4 3dbe 9149 703f
00000300: 24b2 be3d bdab 463c f77b 76be 411e 1a3e
00000310: 2cdd 323f 733f 913f e354 02bc 1ffe 3a3f
00000320: 6e20 abbd 14bb 853e 1d5a 60be 4e64 e43d
00000330: a134 ec3d 79c0 283d b80b a0be 468e 92be
00000340: ec3b 393f 5eee e13f ed1f eabd 7aa1 413e
00000350: 9076 34bb 3bcb be3e 2d86 fc3e 8d83 93bf
00000360: c051 80be 8008 043e 51ff 66be e8df 88be
00000370: 148a 56be 029d ccbe e810 57be 7881 033e
00000380: 7951 5c3d ae82 553e 63bb 053f 7940 14bf
00000390: c1b3 38be 7058 af3c 802a 3ebe 18b7 9bbe
000003a0: 3760 7dbe f67c 903e 8121 f83b 9018 f13e
000003b0: f6ba f1bd 6674 a3be 8722 213e 491a 883e
000003c0: 44b2 fc3d da63 63be a073 bf3c 618c efbe
000003d0: 8209 e23d 2b60 b7bd 80cd e8be 1a33 9cba
000003e0: cff2 0f3e b0ce b7be 4900 76be 36e3 fc3e
000003f0: 5f9d 0dbf d402 e0be 0525 e13d ecb6 7b3d

net.0.bias f4 [64]
-0.18840802 0.18382147 0.26626492 -0.5760476 -0.25182897 -0.11248745 -0.24048173 0.059033364
-0.03206878 0.34448487 -0.14885408 -0.02309379 -0.22564106 0.30419767 -0.18367109 -0.02073008
-0.38671792 0.42732736 -0.45973754 0.010643662 -0.1809008 -0.36153755 0.16700986 0.35970923
-0.0812506 0.16431223 0.058740854 0.2327084 0.18569772 0.12024361 0.21066037 0.17197746
-0.36831787 0.6408103 0.07166184 -0.10083414 -0.1610362 -0.2385577 0.27866656 -0.096264586
0.18242665 0.21754074 0.24428843 0.6186361 -0.1308445 -0.24266636 0.1698539 0.22527285
0.14933991 0.41986504 0.31618753 0.06523451 0.04675893 -0.33772275 0.43916407 0.056529097
0.16296533 0.21536016 0.09940149 -0.0848087 0.10611194 -0.014202594 0.28634635 -0.26623642
00000000: 08ee 40be b23b 3c3e e053 883e db77 13bf
00000010: baef 80be d25f e6bd d840 76be f8cc 713d
00000020: 8e5a 03bd 5260 b03e 346d 18be 302f bdbc
00000030: 730e 67be ccbf 9b3e 4614 3cbe 21d2 a9bc
00000040: e4ff c5be a7ca da3e b862 ebbe c162 2e3c
00000050: 0f3e 39be 731b b9be a204 2b3e cf2b b83e
00000060: b766 a6bd 7741 283e 409a 703d 1c4b 6e3e
00000070: 8b27 3e3e 4842 f63d 5ab7 573e dc1a 303e
00000080: 2994 bcbe 250c 243f 71c3 923d 2182 cebd
00000090: ace6 24be 7848 74be 62ad 8e3e 5e26 c5bd
000000a0: 0dce 3a3e 00c3 5e3e bf26 7a3e ef5e 1e3f
000000b0: 1afc 05be 887d 78be 2eee 2d3e edad 663e
000000c0: 90ec 183e 8df8 d63e 55e3 a13e ac99 853d
000000d0: 4b86 3f3d ffe9 acbe 1dda e03e 0e8b 673d
000000e0: 62e0 263e 6087 5c3e 0293 cb3d 2fb0 adbd
000000f0: 3851 d93d ffb1 68bc fd9b 923e 2450 88be

net.3.weight f4 [64, 64]
-0.022525474 0.07893055 -0.11966367 -0.057854366 -0.042392325 -0.049313936 -0.23360659 0.036041692
-0.015268031 0.113933384 -0.0227685 -0.05997418 0.06490728 -0.080767244 0.06676698 -0.064937875
-0.05628839 -0.008058899 0.11489199 0.06666338 0.10884496 -0.06330857 0.078453444 0.08663714
-0.0073487605 0.036930133 -0.2908877 0.04001528 0.049721695 -0.056401506 0.15733574 -0.14087181
-0.16013274 0.056192342 0.04165727 -0.09821687 0.0326657 -0.10665582 -0.034269452 0.00032905722
-0.033855867 -0.12354643 -0.052823972 0.32421106 -0.18961734 0.09470746 0.03652888 0.08706166
0.026688358 0.13144319 0.00075207744 -0.017958105 0.022929078 0.01729393 0.10044687 -0.50666606
-0.0806528 0.0038443357 -0.039237317 -0.040579546 -0.045447737 0.014369004 0.04507406 0.08645288
-0.08924891 -0.07135714 0.08644964 -0.06823928 -0.051098973 -0.112581916 0.0132410405 -0.055776596
-0.042657427 0.042202726 0.008049612 -0.11270718 -0.03202525 -0.030817881 0.26693156 -0.018628774
-0.046024803 -0.08520503 0.008013643 0.002824541 -0.02821383 0.11711922 0.058114685 -0.037131898
-0.008076845 -0.15716524 -0.09768685 0.011320695 0.056903217 0.0931297 0.04049288 -0.07496347
-0.03765526 -0.031433865 -0.068486966 -0.10588167 -0.08671565 0.0072670463 0.11907521 -0.08570613
-0.032723624 0.12866178 0.12829483 0.09326931 -0.110965945 0.02908948 -0.003685289 -0.08599693
0.11198757 0.3339571 0.030306336 -0.031678006 -0.0017010105 0.07328733 -0.035111323 -0.2521681
0.21712467 0.09262599 0.07086147 -0.015312732 0.11594415 0.040441263 0.019082023 0.21231186
-0.06702852 -0.13871753 0.032751307 0.07760429 -0.039774977 -0.06949336 -0.10352321 -0.069539815
-0.049868025 0.10563286 -0.12514354 -0.06549817 -0.14015588 -0.104105845 -0.03227363 0.094275355
0.042718768 -0.06950079 -0.10945071 -0.1345844 0.043940835 -0.11705288 0.0014824151 -0.111124106
0.010385327 -0.11419803 -0.10233503 0.08772841 0.036048833 -0.07556155 -0.016931342 -0.07512792
0.07070384 -0.014521922 -0.043229267 -0.10137835 -0.034081966 -0.04206175 -0.01946649 -0.10216895
-0.06888524 0.06932514 0.07214671 -0.058087066 0.09396704 0.007062003 -0.03522475 0.10969471
-0.16945753 0.052797683 0.09072692 0.108953714 -0.0244743 -0.062094543 -0.056680795 0.059211876
0.08092765 0.036656335 -0.04270703 -0.13107598 -0.07858467 -0.07658318 -0.1470325 -0.099490814
0.11570281 -0.0065805563 -0.011409655 0.09917626 0.07456167 -0.091262065 -0.06469362 0.031836092
-0.04862889 -0.08617079 0.0507081 -0.056306526 -0.09426808 0.10608868 0.14758486 -0.099990636
0.054297857 -0.12897465 -0.06858665 0.023981329 -0.15908398 0.014457107 0.11469941 -0.3882788
-0.057958893 -0.092290096 -0.1411522 0.067220554 0.01363808 0.07692038 0.14897095 0.17097215
-0.13684636 -0.034149475 -0.05979314 -0.21115483 -0.043600634 -0.11736345 -0.031019643 -0.15317479
-0.019801093 0.11482735 0.043885306 -0.091157615 -0.20410185 0.008682385 0.07938177 -0.21154863
0.13038382 -0.16453142 0.21249312 0.027525932 0.026107293 -0.14488873 0.027147267 0.31387702
0.20709102 0.09328072 0.058835614 0.04891097 0.04572013 0.07754211 0.014677117 0.15946847
00000000: 5887 b8bc 57a6 a13d 3a12 f5bd b3f8 6cbd
00000010: 93a3 2dbd 69fd 49bd 9136 6fbe 74a0 133d
00000020: c326 7abc e855 e93d 0185 babc 7ca7 75bd
00000030: 1cee 843d 4c69 a5bd 20bd 883d 26fe 84bd
00000040: a88e 66bd 7909 04bc 7e4c eb3d cf86 883d
00000050: 1bea de3d eca7 81bd 33ac a03d d06e b13d
00000060: dfcd f0bb 0d44 173d 3cef 94be 10e7 233d
00000070: faa8 4b3d 4405 67bd 9f1c 213e b340 10be
00000080: d6f9 23be f129 663d d0a0 2a3d ed25 c9bd
00000090: 78cc 053d 5e6e dabd 205e 0cbd 5085 ac39
000000a0: 73ac 0abd e905 fdbd f35d 58bd fefe a53e
000000b0: 0c2b 42be fcf5 c13d 4f9f 153d 624d b23d
000000c0: 8ba1 da3c 0b99 063e 1027 453a e01c 93bc
000000d0: c3d5 bb3c 00ac 8d3c 17b7 cd3d deb4 01bf
000000e0: 4c2d a5bd 40f1 7b3b 4fb7 20bd bd36 26bd
000000f0: 6827 3abd f96b 6b3c 949f 383d 350e b13d
00000100: 22c8 b6bd b123 92bd 820c b13d 09c1 8bbd
00000110: 284d 51bd 5991 e6bd f3f0 583c 0076 64bd
00000120: 8eb9 2ebd c4dc 2c3d 85e2 033c 06d3 e6bd
00000130: e92c 03bd c875 fcbc 41ab 883e 5f9b 98bc
00000140: 8184 3cbd fa7f aebd a84b 033c ef1b 393b
00000150: b120 e7bc 34dc ef3d aa09 6e3d 9e17 18bd
00000160: be54 04bc edef 20be 0b10 c8bd 707a 393c
00000170: 5913 693d c9ba be3d dddb 253d 7386 99bd
00000180: 673c 1abd ccc0 00bd e542 8cbd 7dd8 d8bd
00000190: fa97 b1bd 6720 ee3b b4dd f33d b286 afbd
000001a0: 3509 06bd eabf 033e b85f 033e fb03 bf3d
000001b0: 1d42 e3bd 104d ee3c e484 71bb 291f b0bd
000001c0: bd59 e53d 6dfc aa3e fe44 f83c ccc0 01bd
000001d0: 71f4 deba ab17 963d e4d0 0fbd 2d1c 81be
000001e0: ee55 5e3e b2b2 bd3d d21f 913d 41e2 7abc
000001f0: 2074 ed3d bda5 253d e751 9c3c 4868 593e
00000200: 4046 89bd f80b 0ebe 3c26 063d ffee 9e3d
00000210: 16eb 22bd 8952 8ebd fa03 d4bd e46a 8ebd
00000220: 6a42 4cbd 0a56 d83d a125 00be e823 86bd
00000230: 0685 0fbe 7235 d5bd 5b31 04bd 7013 c13d
00000240: e0f9 2e3d 6e56 8ebd b227 e0bd 7ed0 09be
00000250: 4efb 333d 6cb9 efbd 994d c23a 0995 e3bd
00000260: 3827 2a3c a8e0 e9bd 0795 d1bd f4aa b33d
00000270: f1a7 133d 04c0 9abd 99b3 8abc abdc 99bd
00000280: 2dcd 903d 5bed 6dbc 2c11 31bd 749f cfbd
00000290: 8899 0bbd f148 2cbd 3078 9fbc f43d d1bd
000002a0: b413 8dbd 57fa 8d3d a7c1 933d b4ec 6dbd
000002b0: cb71 c03d 6068 e73b d447 10bd 9fa7 e03d
000002c0: 4686 2dbe 6242 583d 09cf b93d 2023 df3d
000002d0: 547e c8bc d956 7ebd 1f2a 68bd 2788 723d
000002e0: 65bd a53d f424 163d 91ed 2ebd c838 06be
000002f0: 00f1 a0bd a4d7 9cbd b08f 16be d7c1 cbbd
00000300: 98f5 ec3d b5a1 d7bb 90ef 3abc ec1c cb3d
00000310: cab3 983d 9be7 babd 177e 84bd 9066 023d
00000320: 162f 47bd 507a b0bd 4cb3 4f3d aca1 66bd
00000330: a00f c1bd 0645 d93d 7c20 173e e4c7 ccbd
00000340: 6e67 5e3d ee11 04be 2877 8cbd 7e74 c43c
00000350: e9e6 22be 80dd 6c3c 86e7 ea3d 7bcc c6be
00000360: 4e66 6dbd 9702 bdbd 348a 10be eeaa 893d
00000370: 4172 5f3c 6f88 9d3d d78b 183e 5313 2f3e
00000380: 7421 0cbe 52e0 0bbd a7e9 74bd f938 58be
00000390: 9496 32bd 405c f0bd e81c febc dad9 1cbe
000003a0: e735 a2bc 9a2a eb3d 14c1 333d d8b0 babd
000003b0: 1300 51be 9040 0e3c e992 a23d 34a0 58be
000003c0: 5683 053e ed7a 28be cc97 593e 107e e13c
000003d0: f6de d53c b65d 14be f263 de3c 7db4 a03e
000003e0: ab0f 543e f609 bf3d 9dfd 703d df56 483d
000003f0: 0845 3b3d 66ce 9e3d 4a78 703c b44b 233e

net.3.bias f4 [64]
0.1733145 0.27345875 -0.13268076 0.044399668 0.28094316 -0.026883122 -0.031071594 0.47330064
0.1809352 -0.025352329 0.09065398 0.28870878 0.09581624 0.06399165 -0.0252868 0.07131723
0.079044394 0.20933871 -0.19888571 -0.08577074 0.17611985 -0.06432616 -0.0036551547 0.1370041
0.4075294 -0.6421853 -0.07817266 -0.0810762 0.30035275 0.22412539 -0.54337883 0.0314863
0.28959087 0.04424164 0.29278362 0.37316093 0.086589046 0.106208324 0.1612338 0.3392578
0.15257572 -0.109339446 0.18435949 0.3737091 0.26291868 0.017998641 0.34221745 0.5070751
0.0021871626 0.4919916 -0.12556966 0.8401991 -0.059464674 0.01477796 -0.09707754 0.27773947
0.29636568 0.0750082 -0.0063014436 0.4756638 0.12373209 -0.20115452 0.26916677 -0.075305976
00000000: 5b79 313e c902 8c3e 77dd 07be 6ddc 353d
00000010: c8d7 8f3e fe39 dcbc db89 febc 7654 f23e
00000020: 1447 393e b0af cfbc cba8 b93d a3d1 933e
00000030: 4e3b c43d 0e0e 833d 4326 cfbc c50e 923d
00000040: 07e2 a13d e35c 563e b2a8 4bbe 92a8 afbd
00000050: c358 343e 6fbd 83bd 528b 6fbb ce4a 0c3e
00000060: b2a7 d03e 4166 24bf fd18 a0bd 470b a6bd
00000070: d6c7 993e 2081 653e e01a 0bbf c7f7 003d
00000080: 4145 943e b936 353d bce7 953e f30e bf3e
00000090: 9955 b13d c083 d93d 791a 253e 33b3 ad3e
000000a0: cf3c 1c3e 5ced dfbd bcc8 3c3e cd56 bf3e
000000b0: 479d 863e e371 933c 2037 af3e accf 013f
000000c0: 8056 0f3b 53e6 fb3e 5595 00be 4a17 573f
000000d0: 3b91 73bd 421f 723c 97d0 c6bd de33 8e3e
000000e0: 3ebd 973e e69d 993d 577c cebb 358a f33e
000000f0: 4067 fd3d 73fb 4dbe 3ad0 893e 053a 9abd

net.6.weight f4 [3, 64]
0.07381279 0.024805712 0.024156647 0.09460558 -0.025578827 0.16204177 0.024505828 0.047582638
0.026830595 -0.09038104 -0.3468361 0.054286987 -0.046718292 -0.5350551 -0.31949228 -0.047698952
0.07931428 0.07552403 -0.24456632 -0.062457867 -0.14513049 -0.03617866 0.0029941434 -0.0034340986
0.02037668 -0.53524673 -0.13171051 -0.06355688 -0.543551 0.093194924 -0.3424483 -0.48613387
0.061666235 -0.11336113 0.049457338 0.009738899 0.1800748 -0.2963441 0.17116879 -0.0006024235
-0.485651 -0.01379618 0.026868155 0.052427094 -0.008105543 -0.026671624 0.0023833248 0.0070763663
0.004155785 0.11826976 0.027572192 0.004319563 -0.15249653 -0.0119221015 -0.037490144 -0.01604501
0.07122329 -0.046448387 0.030463973 0.015910529 0.17786236 0.6259066 0.026624314 -0.04551851
0.0037313062 0.0029965614 0.09278921 0.01560614 0.22554414 0.043683857 -0.04100904 0.09419023
-0.022938231 0.08473219 0.01773757 0.022090087 -0.00096394063 -0.028193332 -0.0069417157 0.23412393
-0.012968708 0.0122851245 -0.08697382 0.031607505 -0.025304267 0.15614456 0.0064905076 0.023951784
0.10230332 -0.08204758 0.063565254 -0.01587131 -0.084515035 0.020141477 -0.12629265 -0.0035971222
0.07335266 0.01977275 0.0053751837 0.033821303 0.031215183 0.07017951 0.030599182 0.27176738
-0.018381478 0.09791794 0.084426984 -0.013742942 0.08387726 -0.040502913 0.063557856 0.0034157024
-0.10127565 -0.0076865004 -0.029335799 0.06967554 0.04213287 -0.0031481448 0.032298066 0.2516641
0.067786194 0.04149468 -0.01856278 0.21691988 0.1406744 0.04695854 -0.026067918 -0.049232293
-0.009926677 -0.034787834 0.05842171 -0.0032028148 0.16402712 0.12863806 -0.07358154 0.0742435
-0.015020105 0.15277915 -0.021297656 0.014544129 -0.005803902 -0.05670626 0.0069233477 -0.031805206
0.022195105 0.020887697 -0.10366876 0.19835682 -0.019487837 -0.059632186 -0.04878477 0.052345954
0.19189417 -0.19636402 0.0011272719 0.051455718 -0.05066905 0.075187586 -0.203742 -0.012479839
0.16945344 0.16487825 -0.0058607752 0.040523287 0.12918963 0.030716024 0.009174 0.033460595
-0.09269429 -0.049158372 0.27435863 -0.002016549 0.19129333 0.17472404 0.05414424 0.13460913
-0.08981213 -0.030163739 -0.039926995 0.07791945 0.034352336 0.016728295 -0.024624646 0.3423765
0.05652315 0.20175675 -0.09708305 0.1431897 0.0038179765 -0.077499315 0.057513952 -0.014288325
00000000: 292b 973d 5935 cb3c 29e4 c53c 92c0 c13d
00000010: b08a d1bc 47ee 253e 72c0 c83c 03e6 423d
00000020: d6cb db3c b219 b9bd 8094 b1be 085c 5e3d
00000030: ae5b 3fbd 5ff9 08bf 7e94 a3be fa5f 43bd
00000040: 866f a23d 58ac 9a3d 986f 7abe d2d3 7fbd
00000050: 169d 14be 1330 14bd 6439 443b 9d0e 61bb
00000060: ffec a63c ee05 09bf 1fdf 06be 1c2a 82bd
00000070: 2926 0bbf fbdc be3d 6255 afbe 8ae6 f8be
00000080: bc95 7c3d e129 e8bd c793 4a3d e78f 1f3c
00000090: 8765 383e 6aba 97be df46 2f3e f5eb 1dba
000000a0: 3fa7 f8be 5f09 62bc 9b1a dc3c cbbd 563d
000000b0: 1dcd 04bc 737e dabc 8e31 1c3b dde0 e73b
000000c0: 402d 883b 6a37 f23d 14df e13c 1f8b 8d3b
000000d0: 0d28 1cbe eb54 43bc 448f 19bd d370 83bc
000000e0: 84dd 913d aa40 3ebd 958f f93c cc56 823c
000000f0: 8d21 363e 6a3b 203f 3c1b da3c 9e71 3abd
00000100: ee88 743b f561 443b 4508 be3d e5b0 7f3c
00000110: 0bf5 663e d8ed 323d 18f9 27bd cfe6 c03d
00000120: f5e8 bbbc 1288 ad3d 614e 913c 45f6 b43c
00000130: f6b0 7cba b4f5 e6bc 5577 e3bb 2fbe 6f3e
00000140: b47a 54bc 8c47 493c 551f b2bd df76 013d
00000150: e54a cfbc 5ce4 1f3e 53ae d43b 8836 c43c
00000160: 6784 d13d 9008 a8bd 802e 823d 8d04 82bc
00000170: 3816 adbd bdff a43c dc52 01be b2bd 6bbb
00000180: eb39 963d 76fa a13c 4f22 b03b 3588 0a3d
00000190: fcb6 ff3c 46ba 8f3d 23ab fa3c 1825 8b3e
000001a0: c194 96bc 3389 c83d 0ee8 ac3d 142a 61bc
000001b0: d7c7 ab3d 62e6 25bd 9f2a 823d fad9 5f3b
000001c0: 9c69 cfbd 0adf fbbb a151 f0bc 0db2 8e3d
000001d0: 8493 2c3d 1b51 4ebb fa4a 043d 1eda 803e
000001e0: 7dd3 8a3d 53f6 293d f910 98bc 3f20 5e3e
000001f0: f30c 103e 9957 403d 638c d5bc cda7 49bd
00000200: 80a3 22bc b07d 0ebd 9a4b 6f3d 51e6 51bb
00000210: baf6 273e b2b9 033e ebb1 96bd fa0c 983d
00000220: e316 76bc 2372 1c3e 6c78 aebc 804a 6e3c
00000230: a92e bebb d344 68bd 40dd e23b 2d46 02bd
00000240: 82d2 b53c ad1c ab3c 4950 d4bd 0d1e 4b3e
00000250: f5a4 9fbc e140 74bd 8ad2 47bd b668 563d
00000260: e87f 443e a613 49be f8c0 933a 3bc3 523d
00000270: 5a8a 4fbd f3fb 993d bea1 50be 3d78 4cbc
00000280: 3485 2d3e d8d5 283e bf0b c0bb bffb 253d
00000290: 494a 043e 2ca0 fb3c 8b4e 163c fa0d 093d
000002a0: 81d6 bdbd 4a5a 49bd bc78 8c3e 1428 04bb
000002b0: 66e2 433e dcea 323e 5ac6 5d3d fad6 093e
000002c0: 6cef b7bd f219 f7bc 7d8a 23bd 3c94 9f3d
000002d0: 09b5 0c3d c709 893c a0b9 c9bc f94b af3e
000002e0: d284 673d 5299 4e3e 7ad3 c6bd 52a0 123e
000002f0: 0437 7a3b f6b7 9ebd c093 6b3d 9419 6abc

net.6.bias f4 [3]
0.58592814 1.4318545 0.6203667
00000000: 63ff 153f 0247 b73f 5ad0 1e3f
