examples/full_project_setup/results/q_table_aris.pt (torch, 21320 bytes, 6 tensors)

net.0.weight f4 [64, 5]
0	0xbe555973	-0.20834903
1	0x3e89c829	0.26910523
2	0x3db3e3c3	0.087836765
3	0xbfb72c85	-1.4310461
4	0x3f52675d	0.8218897
5	0x3ba515af	0.0050379853
6	0xbe56ad5b	-0.20964567
7	0x3e60c554	0.21950275
8	0xbfff30d0	-1.9936771
9	0xbea930e7	-0.33045122
10	0xbebd183a	-0.36932546
11	0x3df89ada	0.121389106
12	0xbb32af0a	-0.0027264976
13	0xbf6664fa	-0.8999783
14	0x3e4c2ac3	0.19938187
15	0x3e9069ee	0.28205818
16	0x3d8ac154	0.06775156
17	0xbee3bdb7	-0.44480678
18	0x3f570e10	0.8400583
19	0xbf626864	-0.8844054
20	0xbdc26f94	-0.09493938
21	0x3e1de20f	0.15418266
22	0x3dde6a2e	0.10860096
23	0xbffc5829	-1.9714404
24	0x3f307b28	0.6893792
25	0xbec42579	-0.3830984
26	0x3e31ca61	0.17362358
27	0x3ec699e6	0.3878929
28	0xbf9ab4c1	-1.2086412
29	0x3f185c0f	0.5951547
30	0x3e9f6fa1	0.31139854
31	0xbef67756	-0.4813792
32	0x3ec8ed2f	0.39243457
33	0x3f49bff3	0.78808516
34	0xbdb141e2	-0.08655144
35	0x3dac7342	0.08420421
36	0xbe3cbf2d	-0.18432303
37	0x3e9ab9a4	0.30219758
38	0xbf42e648	-0.7613263
39	0x3f947dc0	1.1600876
40	0x3dde5f00	0.108579636
41	0xbddc34ab	-0.10752233
42	0x3ec1a08d	0.37817803
43	0xbf99c875	-1.20143
44	0x3f10ad44	0.5651438
45	0xbce4d92d	-0.027935589
46	0xbd57530b	-0.05256943
47	0x3e447a9b	0.19187395
48	0xbfad68af	-1.3547572
49	0x3f46c977	0.7765116
50	0xbd80b16e	-0.06283842
51	0x3c931ffa	0.017959584
52	0x3eb63f84	0.35595334
53	0xbf5ce011	-0.862794
54	0x3f37bfcd	0.7177704
55	0xbd9c7f30	-0.076414466
56	0xbba85aab	-0.0051377616
57	0x3e410fd3	0.18853693
58	0xbfb360dd	-1.4013935
59	0x3faa6fdb	1.3315386
60	0xbce2d904	-0.027691372
61	0xbe6a82d2	-0.22901466
62	0x3e7b1e6b	0.24523322
63	0x3e3b146d	0.1826951
64	0x3dbeac21	0.09310175
65	0x3c4a7292	0.012356417
66	0xbe3c9a63	-0.18418269
67	0x3ec33707	0.3812792
68	0xbef35ab2	-0.47530133
69	0x3f84d14d	1.0376374
70	0x3d970eb0	0.07375848
71	0xbe8a7baf	-0.27047488
72	0xbe841f7a	-0.25805265
73	0x3e92d9d8	0.28681827
74	0xbeaad8f5	-0.3336865
75	0x3d94db2a	0.07268365
76	0x3cf08497	0.029360099
77	0x3e4b39f5	0.19846328
78	0xbf787115	-0.9704755
79	0x3f35e2ad	0.71049005
80	0xbe41158e	-0.18855879
81	0x3cd36935	0.025807003
82	0xbe9b0afa	-0.30281812
83	0xbe2441e6	-0.16040763
84	0x3ea1b0e8	0.3158028
85	0xbd6d53ac	-0.057941124
86	0x3d6a1732	0.057151027
87	0x3d775add	0.06038939
88	0xbf83a9ac	-1.0286155
89	0x3f778669	0.9668947
90	0x3db30c7f	0.08742618
91	0x3d2ea72f	0.042639907
92	0x3e111973	0.14169864
93	0xbfa67457	-1.3004254
94	0x3f575bca	0.84124434
95	0xbed1d9a7	-0.40986368
96	0x3de3f755	0.11131159
97	0x3e4ff191	0.20306994
98	0xbfd4b4f9	-1.6617728
99	0x3f0ea132	0.55714715
100	0x3e4bd097	0.1990379
101	0xbc0e1736	-0.008672526
102	0xbe3c2421	-0.18373157
103	0x3f949976	1.1609333
104	0x3d338895	0.043831427
105	0x3ea137fc	0.31488025
106	0xbe2dcf62	-0.16973642
107	0xbe507163	-0.20355754
108	0x3e927174	0.28602183
109	0xbd01129b	-0.031511884
110	0xbae07ee1	-0.0017127657
111	0xbe8d2c45	-0.27572837
112	0x3e98bbc3	0.2983075
113	0xbdf7236e	-0.120673046
114	0xbd8ed473	-0.06974115
115	0x3c5e5292	0.013569491
116	0xbd1f5707	-0.038901355
117	0xbe0d9add	-0.13828607
118	0x3e4a53a8	0.19758475
119	0xbe06d28d	-0.13166256
120	0xbde60a69	-0.11232454
121	0x3bdff673	0.006834799
122	0xbec4e7c5	-0.38458076
123	0xbe22f0de	-0.15912196
124	0x3ec3c9a6	0.38239783
125	0x3e85df07	0.2614672
126	0x3bc1780c	0.0059042033
127	0xbea6e4f8	-0.32596564
128	0x3fbb8b3a	1.4651864
129	0x3c991fe2	0.01869196
130	0xbf0ab5b7	-0.54183525
131	0x3e1a19c6	0.15048894
132	0x3c230e17	0.00995209
133	0xbfa4aee7	-1.2865876
134	0x3ef65759	0.48113516
135	0x3da6827b	0.08130356
136	0xbebaa998	-0.36457515
137	0x3ec06ce6	0.37583083
138	0xc03afd9f	-2.9217298
139	0xbf82dde9	-1.0223972
140	0xbe88d719	-0.26726606
141	0x3e65aed3	0.22429971
142	0xbd533cbd	-0.051571596
143	0xbf9ada6a	-1.2097905
144	0x3f9b7dff	1.2147826
145	0x3e23e03d	0.16003509
146	0xbee2c42a	-0.44290286
147	0x3e58c2e5	0.21168096
148	0x3f2aca0b	0.66714543
149	0xbf1323b8	-0.5747638
150	0xbe4cb348	-0.19990265
151	0x3d04b0a6	0.032395028
152	0x3e9f78a9	0.31146744
153	0xbf622052	-0.88330567
154	0x3f16470b	0.5870215
155	0x3d38c0fd	0.045105923
156	0x3e02a6d4	0.12758952
157	0x3c14b369	0.009075978
158	0xbf36efde	-0.7145976
159	0x3fa8406a	1.3144658
160	0x3e5b1b5d	0.21397157
161	0xbe99afff	-0.30017087
162	0x3d615c28	0.055019528
163	0xbf8f6e53	-1.1205543
164	0xbe47ee9a	-0.19524613
165	0xbee05ed6	-0.43822354
166	0x3d73060b	0.059331935
167	0x3d8b8578	0.068125665
168	0xbfca4e37	-1.5805119
169	0x3f3f70c9	0.7478147
170	0x3d6ca5c0	0.05777526
171	0xbe9b98c7	-0.30389997
172	0x3ea6902f	0.32531878
173	0xbfa8e339	-1.3194343
174	0xbe6be934	-0.23038179
175	0xbd7c0df1	-0.061536733
176	0x3db91fba	0.090392545
177	0xbe68bb08	-0.22727597
178	0xc0020562	-2.0315785
179	0x3f28e2c8	0.6597104
180	0xbd56dccc	-0.052456662
181	0x3db814bd	0.089883305
182	0xbebcff1a	-0.36913377
183	0xc00a339f	-2.1594007
184	0x3ee655df	0.4498739
185	0xbea98eaa	-0.33116657
186	0x3e89cc7a	0.26913816
187	0x3e301ce0	0.17198515
188	0xbf6a7493	-0.9158413
189	0x3f6142aa	0.87992346
190	0xbc2e8c21	-0.0106535265
191	0x3ee420f8	0.44556403
192	0x3f2579a6	0.64638746
193	0xbf630603	-0.8868105
194	0x3fa36cf3	1.2767624
195	0x3d48d33f	0.049029585
196	0xbe34cad4	-0.17655498
197	0x3ee2e115	0.4431235
198	0xbf1e64b6	-0.6187242
199	0x3f22dbb6	0.636165
200	0xbeadebe6	-0.3396904
201	0x3dab587d	0.08366487
202	0x3ec01394	0.37514937
203	0xbfbf4d5a	-1.4945481
204	0x3f7caa8c	0.98697734
205	0xbef40659	-0.47661093
206	0x3ddb9bd8	0.10723084
207	0xbeeef607	-0.4667208
208	0xbf9fa00e	-1.247072
209	0x3efb7a27	0.49116632
210	0x3d10d0d1	0.035355393
211	0xbe116bc8	-0.14201272
212	0x3e989277	0.29799244
213	0xbf50a271	-0.81497866
214	0x3f817de4	1.0116544
215	0xbe08d30c	-0.13361758
216	0x3cbef226	0.023308825
217	0x3e1e891c	0.1548199
218	0xbfb6d313	-1.4283165
219	0x3f3854e6	0.72004545
220	0x3c80dd13	0.015730416
221	0xbed0da0c	-0.40791357
222	0x3d9e1ee7	0.07720738
223	0xbe032e54	-0.12810642
224	0x3e929496	0.28628987
225	0xbe38bb09	-0.18040098
226	0xbe7d6073	-0.24743824
227	0xbdea0182	-0.11426069
228	0x3e4283f4	0.18995649
229	0x3eb02fe6	0.34411544
230	0x3d28715b	0.04112373
231	0x3d6afecd	0.057371903
232	0x3d8a223b	0.0674481
233	0xbfa7a4d0	-1.3097172
234	0x3f8c9e9d	1.0985905
235	0xbe8bdaf8	-0.27315497
236	0x3edd124b	0.4317802
237	0xbdf7a136	-0.120912954
238	0xbee17d82	-0.44041067
239	0x3f331219	0.6994949
240	0xbeb9bcea	-0.36276942
241	0x3d9c2ca1	0.076257
242	0x3d03d1a2	0.032182343
243	0xbfa5acfd	-1.2943417
244	0x3f949810	1.1608906
245	0xbdbddfb1	-0.092711814
246	0x3e11588e	0.14193937
247	0x3dcf213e	0.10113762
248	0xbf2c9148	-0.6740918
249	0x3fb37019	1.4018584
250	0x3e716ae4	0.23575932
251	0xbeb89f24	-0.36058915
252	0x3d96bb1f	0.07359909
253	0xbfb3db73	-1.4051346
254	0xbcc223aa	-0.023698647
255	0xbb754c1d	-0.00374294

net.0.bias f4 [64]
0	0x3f63f383	0.89043444
1	0xbe4814ef	-0.19539236
2	0x3d063f7e	0.032775395
3	0xbf45c0bf	-0.7724723
4	0x3eefeca0	0.46860218
5	0x3e91bb81	0.28463367
6	0x3e9a6ea8	0.3016255
7	0x3f03392e	0.51259124
8	0x3f5d07d7	0.8634009
9	0x3f0ac858	0.5421195
10	0x3f833533	1.025061
11	0x3f32c388	0.69829607
12	0xbdf5f4bc	-0.1200957
13	0x3f7d6d7e	0.98995197
14	0xbcfaca70	-0.030614108
15	0x3f6bd255	0.92117816
16	0x3f985797	1.190173
17	0x3f89e05f	1.0771598
18	0x3f817571	1.0113965
19	0x3ea1bb00	0.31587982
20	0xbf8adb67	-1.0848206
21	0xbf42a335	-0.76030284
22	0xbf1b3c59	-0.6063896
23	0x3fa8ddbb	1.3192667
24	0x3fa0ce87	1.2563027
25	0xbf04b4b2	-0.5183822
26	0x3f501610	0.81283665
27	0xbe2ce02b	-0.16882388
28	0x3f0bbfc5	0.5458949
29	0xbf1c5f4b	-0.61082906
30	0x3e920bc3	0.28524598
31	0x3e8bb643	0.27287492
32	0x3e5f0acc	0.21781462
33	0x3f627fd1	0.8847628
34	0xbefe09f1	-0.4961696
35	0x3e28e66e	0.16494152
36	0x3eed64d7	0.46365997
37	0x3f7b99f2	0.98281777
38	0x3f7ca003	0.9868166
39	0x3f8ab50f	1.0836505
40	0x3f073b9a	0.5282532
41	0x3c8b7c4b	0.017027041
42	0x3f8c657d	1.0968472
43	0x3f7142d3	0.9424259
44	0x3f80aa90	1.0052052
45	0x3f857a27	1.0427903
46	0x3f56f652	0.83969605
47	0x3f8a0b9b	1.0784792
48	0x3f1ec496	0.62018716
49	0x3f82a3fc	1.0206294
50	0x3e8df630	0.2772689
51	0x3f6cdbe4	0.92523026
52	0x3f9178ac	1.1364951
53	0x3f2c3e78	0.6728282
54	0x3dd9246a	0.106026486
55	0x3fb3dd54	1.4051919
56	0x3f4eb538	0.8074527
57	0x3e372ac2	0.17887405
58	0xbea54559	-0.3227947
59	0x3f614a0d	0.8800362
60	0x3e703ded	0.23461123
61	0x3cdba720	0.02681309
62	0x3f9f945a	1.2467148
63	0x3f392515	0.7232221

net.3.weight f4 [64, 64]
0	0x3c08d38a	0.008351216
1	0xbe8b43c1	-0.2720013
2	0x3d53c66b	0.051702898
3	0x3df144e8	0.11780721
4	0xbd3c7e4b	-0.04601888
5	0x3c51e8b9	0.012811833
6	0x3dda6e30	0.10665548
7	0x3e087036	0.13324055
8	0xbb996cd8	-0.0046821646
9	0xbc0c8c10	-0.008578315
10	0x3cf21258	0.029549763
11	0x3dabdadd	0.08391354
12	0xbd945338	-0.07242435
13	0x3e088a94	0.13334113
14	0x3cb7a0e0	0.022415578
15	0x3e0de180	0.13855553
16	0x3f646314	0.8921368
17	0x3e08c34d	0.13355751
18	0xbd585c00	-0.052822113
19	0x3d6cb6f5	0.05779167
20	0x3da0ccd0	0.07851565
21	0xbd76d8ab	-0.060265224
22	0xbd08103a	-0.0332186
23	0x3f4b54e2	0.79426396
24	0x3f483e80	0.7822037
25	0xbcbe056a	-0.023195941
26	0x3e073605	0.132042
27	0x3dce455c	0.10071823
28	0x3cf498b8	0.029857978
29	0xbe296da7	-0.16545735
30	0x3d75fccf	0.06005555
31	0xbd3d3822	-0.04619611
32	0x3db352f9	0.0875606
33	0x3e62f408	0.22163403
34	0xbdff3749	-0.12461717
35	0x3e0c49e2	0.13700059
36	0xbbe77bb2	-0.007064306
37	0xbd830add	-0.063985564
38	0x3c8fecbc	0.017568938
39	0xbd09a078	-0.0336003
40	0xbcc3173a	-0.023814786
41	0x3dafca6f	0.08583533
42	0x3c899a2f	0.016797153
43	0x3de21dfd	0.11040876
44	0x3f56b622	0.8387166
45	0x3f82211b	1.0166353
46	0x3d69cb10	0.05707842
47	0x3dca0d60	0.09865832
48	0x3db88c25	0.090111054
49	0x3dd49203	0.10379412
50	0x3e6b7e85	0.22997482
51	0x3d9a7194	0.075411946
52	0x3f3b5959	0.7318321
53	0x3e07d1e5	0.13263662
54	0xbdf6b2b4	-0.12045804
55	0x3c2c0e83	0.010501507
56	0xbc9a60c5	-0.018844971
57	0x3c12e685	0.008966093
58	0x3d2c55f0	0.042074144
59	0x3d7e6cd5	0.06211551
60	0x3e5b844c	0.21437186
61	0xbdcb9150	-0.099398255
62	0x3f6dbbd8	0.9286475
63	0x3dbcf24d	0.09225903
64	0x3deaadc1	0.11458922
65	0xbef19ab7	-0.4718835
66	0xbd21847c	-0.039432988
67	0x3da9f6ab	0.08299001
68	0xbac84fc2	-0.0015282559
69	0x3ce278c4	0.027645476
70	0x3d5c9d01	0.053860668
71	0x3de447bf	0.11146497
72	0x3d41a232	0.047273822
73	0xbc38b7ac	-0.01127426
74	0xbd91c77c	-0.07118127
75	0x3e3dd3f3	0.18537883
76	0xbe58c9e5	-0.21170767
77	0xbab6aba8	-0.0013936656
78	0x3ddecdd4	0.10879102
79	0xbd8e3bbc	-0.06944987
80	0x3f689b36	0.90861833
81	0x3e1c5491	0.15266635
82	0x3e0a60e0	0.13513517
83	0x3db33dfd	0.08752058
84	0xbda7fe0b	-0.08202752
85	0xbd222cdc	-0.039593562
86	0xbea8f96c	-0.33002794
87	0x3f2d1c7c	0.6762159
88	0x3f6dc7ab	0.92882794
89	0xbd79d073	-0.06098981
90	0x3bbc74de	0.0057512363
91	0xbdcee0e6	-0.1010149
92	0xbca15795	-0.019695083
93	0xbe783a92	-0.24241093
94	0xbda997b9	-0.08280892
95	0x3d5696c5	0.05238988
96	0xbd003f2e	-0.031310253
97	0x3ddec267	0.10876923
98	0xbea32bc5	-0.3186933
99	0xbdc6b9dd	-0.09703419
100	0xbceaefaa	-0.028678734
101	0x3d73ff77	0.059569802
102	0x3bdce516	0.0067411764
103	0x3c9ba0f3	0.018997645
104	0x3e207a53	0.15671663
105	0xbd01eb4d	-0.03171854
106	0xbc9123b8	-0.017717227
107	0xbd888f36	-0.0666794
108	0x3f5790a1	0.8420506
109	0x3f6ff96c	0.9373996
110	0x3dcd561c	0.1002619
111	0xbca6a236	-0.02034102
112	0x3dc9f430	0.09861028
113	0x3e16f5cc	0.14742202
114	0x3e8a7019	0.2703865
115	0x3da4d564	0.080485135
116	0x3f4ffe9e	0.8124789
117	0x3c391eaf	0.011298819
118	0xbe1b97d8	-0.15194643
119	0x3de77da9	0.11303265
120	0x3da55c5d	0.080742575
121	0xbb9f9517	-0.004870068
122	0xbd8f2b1c	-0.06990644
123	0x3c9d9c0c	0.019239448
124	0x3e6b386b	0.2297074
125	0xbe87a06b	-0.26489577
126	0x3f476497	0.7788786
127	0x3dafdda7	0.08587199
128	0x3d3615f8	0.044454545
129	0xbdbe4584	-0.09290603
130	0xbe432f49	-0.19061007
131	0xbdcbbe98	-0.09948462
132	0x3cb795fc	0.022410385
133	0x3e4134e0	0.18867826
134	0x3de7683f	0.1129918
135	0xbcc30dde	-0.023810323
136	0x3d86301c	0.06552145
137	0xbd8771ff	-0.0661354
138	0xbde87a7e	-0.113514885
139	0x3ccef513	0.025263345
140	0x3e127466	0.14302215
141	0xbe6c1f82	-0.23058894
142	0xbc482780	-0.012216449
143	0x3cf36711	0.029712232
144	0x3d627b05	0.0552931
145	0x3d6b8392	0.057498522
146	0xbcf61ee3	-0.030044025
147	0x3db5c237	0.08874934
148	0x3d7af90e	0.061272673
149	0x3e692533	0.22768097
150	0x3d9066aa	0.070508316
151	0x3dee65f4	0.1164054
152	0x3d601549	0.0547078
153	0xbdae1a02	-0.08501054
154	0x3dc7df31	0.09759367
155	0xbe268b83	-0.16264157
156	0x3e224b5b	0.15849058
157	0xbea67a9c	-0.3251542
158	0xbb15c773	-0.0022854477
159	0xbb2891df	-0.0025721712
160	0x3e2a8c77	0.16655146
161	0x3d057e08	0.032590896
162	0x3cd74992	0.026280198
163	0xbe2a459a	-0.16628113
164	0xbe4d65b4	-0.20058328
165	0xbe03c4a8	-0.12867987
166	0x3dfecd55	0.12441508
167	0xbd4b3a70	-0.049616277
168	0x3db69b11	0.08916295
169	0xbe4503d4	-0.19239742
170	0xbe356dde	-0.17717692
171	0xbcd99540	-0.026560426
172	0x3d9c5729	0.07633812
173	0x3c737673	0.014859783
174	0x3d461b5c	0.048365936
175	0x3dd00181	0.10156537
176	0xbcdcde17	-0.02696137
177	0x3d555cbd	0.052090395
178	0x3ccd8159	0.025086092
179	0xbee0f65f	-0.43937966
180	0x3e008706	0.12551507
181	0xbdb29e7a	-0.08721633
182	0xbcf0084f	-0.029300837
183	0xbe0fafc6	-0.14031896
184	0xbcba8107	-0.022766603
185	0x3d2f6b3e	0.042826883
186	0x3d3907ac	0.045173332
187	0x3ded06ef	0.11573588
188	0xbdccddf9	-0.100032754
189	0x3e3f901b	0.18707316
190	0x3d8401bf	0.064456455
191	0x3d5bb6ad	0.05364101
192	0x3d837826	0.06419401
193	0xbe57b0aa	-0.21063486
194	0x3e10cfe0	0.14141798
195	0x3dd48478	0.10376829
196	0xbc8bb18c	-0.017052434
197	0x3e147d6d	0.14500971
198	0xbd732f77	-0.059371438
199	0xbccfac41	-0.025350692
200	0x3dccb8f8	0.099962175
201	0x3e22fb6f	0.15916227
202	0x3d8593a8	0.06522304
203	0xbd158771	-0.03650612
204	0xbdd33ec0	-0.10314703
205	0x3ddc8b87	0.107688
206	0xbb927e60	-0.0044706315
207	0xbde19270	-0.11014259
208	0x3f5bd7df	0.8587627
209	0x3e22abd4	0.1588586
210	0x3e0a3929	0.13498367
211	0x3c3c2419	0.011483216
212	0xbda402b1	-0.08008326
213	0xbd766460	-0.06015432
214	0xbde36687	-0.1110354
215	0x3f392015	0.7231458
216	0x3f3cc205	0.7373355
217	0x3d7bdf12	0.061492033
218	0x3ddbf5fa	0.10740276
219	0xbdd6c5b7	-0.1048693
220	0x3ce7ea23	0.028309887
221	0xbe805d90	-0.25071383
222	0xbb84b741	-0.004050166
223	0xbc941402	-0.018075947
224	0xbd9d7a8e	-0.07689391
225	0x3e00232f	0.12513421
226	0xbd86ddb2	-0.06585254
227	0x3da5adb8	0.08089775
228	0x3d0d9a5a	0.03457103
229	0xbdf50af3	-0.11964979
230	0xbd5982f5	-0.053103406
231	0xbd751e21	-0.059843186
232	0x3d16f016	0.036850058
233	0x3d927f3a	0.07153173
234	0xbd989eaa	-0.07452138
235	0x3d7e1fd8	0.062042087
236	0x3f6abc7f	0.9169387
237	0x3f6e6933	0.9312927
238	0xbd7fe3d2	-0.062473126
239	0x3d8f2196	0.06988828
240	0x3d85f568	0.06540948
241	0x3dbfb25a	0.0936019
242	0x3e14c85d	0.14529558
243	0x3e36a88c	0.17837733
244	0x3f507a9d	0.81437093
245	0x3cd65d59	0.026167559
246	0xbd4c87db	-0.04993425
247	0xbd271980	-0.040795803
248	0x3d10efd4	0.035384968
249	0xbd583002	-0.05278016
250	0xbdd43998	-0.10362548
251	0x3d5829c1	0.052774195
252	0x3e5ee791	0.21768023
253	0xbe1d0019	-0.15332069
254	0x3f718a36	0.9435152
255	0x3e11ceb2	0.14239004

net.3.bias f4 [64]
0	0x3fb8a284	1.4424596
1	0x3fbe3015	1.4858423
2	0x3f43c297	0.76468796
3	0x3faa8ebc	1.3324809
4	0xbc98af55	-0.018638292
5	0x3dac9867	0.08427506
6	0x3d8009fd	0.06251905
7	0x3fb7b9d6	1.4353588
8	0xbe3a6df7	-0.18206011
9	0x3fb7f931	1.4372922
10	0x3fbbaecd	1.466272
11	0x3f3d849c	0.7403047
12	0x3faddf41	1.3583757
13	0x3fa332d0	1.2749882
14	0xbe23dbad	-0.16001768
15	0x3d5a6a5f	0.0533241
16	0x3c564ea8	0.013080277
17	0x3fb6ad22	1.4271586
18	0x3fb884f6	1.4415576
19	0x3fb0689f	1.3781928
20	0x3fb582de	1.4180562
21	0xbf4d029f	-0.80082124
22	0x3fbde621	1.4835855
23	0x3fb82466	1.4386108
24	0x3fa60800	1.2971191
25	0xbe3ac4a7	-0.1823908
26	0x3fa065aa	1.2531025
27	0xbdb45bd8	-0.0880658
28	0xbec09e64	-0.37620842
29	0x3f767424	0.96270967
30	0xbc4b2fba	-0.012401516
31	0x3fc41731	1.5319577
32	0x3fa5e070	1.2959118
33	0x3fc2f364	1.5230527
34	0x3fbce754	1.4758096
35	0x3f9923ab	1.196401
36	0x3d925bcb	0.07146414
37	0x3eddec33	0.43344268
38	0x3fb9547a	1.4478905
39	0x3d76e0d4	0.060273007
40	0xbd6334be	-0.05547022
41	0x3fc29bd5	1.5203806
42	0x3fc34b55	1.5257365
43	0x3fcdf4c7	1.6090325
44	0xbcab8ffa	-0.020942677
45	0x3f8ff8a4	1.1247754
46	0x3fc8df2f	1.569311
47	0x3eb5477c	0.354061
48	0x3f973ede	1.181606
49	0xbdef8e71	-0.116970904
50	0x3fbcb7f4	1.4743638
51	0x3fc0ef58	1.5073042
52	0x3f02b7da	0.51061785
53	0x3fbd08a0	1.4768257
54	0x3fb56a8b	1.4173139
55	0x3faae0f6	1.3349903
56	0x3da0c358	0.07849759
57	0x3fb9c7f0	1.4514141
58	0xbec41b4a	-0.3830207
59	0x3fbe84fd	1.4884335
60	0x3fc2ccf2	1.5218794
61	0x3de9e7b7	0.11421149
62	0x3f9a2be0	1.204464
63	0x3d9ffc20	0.07811761

net.6.weight f4 [3, 64]
0	0xbdd77a83	-0.10521414
1	0xbdb3a4d8	-0.08771676
2	0xbdd26eb4	-0.10275021
3	0xbe061703	-0.13094716
4	0x3c62113c	0.013798054
5	0xbda38a4b	-0.07985362
6	0x3c4cd7eb	0.012502651
7	0xbdf858ac	-0.12126288
8	0x3da241f6	0.07922737
9	0xbda23085	-0.079194106
10	0xbdc9759b	-0.098368846
11	0xbdb852f3	-0.09000196
12	0xbe397bd9	-0.1811365
13	0xbe0d8291	-0.13819338
14	0xbd56423b	-0.052309256
15	0xbdbf8294	-0.09351078
16	0xbdb2c60b	-0.0872918
17	0xbde8fac3	-0.11375954
18	0xbdd3be41	-0.103390224
19	0xbe23bca8	-0.15989935
20	0xbdf4d3ff	-0.119544975
21	0xbd3f581d	-0.04671489
22	0xbdcc8922	-0.099870935
23	0xbe6cf287	-0.23139392
24	0xbe490576	-0.1963099
25	0xbc61ff9e	-0.013793854
26	0xbdf65167	-0.12027245
27	0x3d26749a	0.040638544
28	0x3e0a7555	0.13521321
29	0xbdba90a9	-0.09109623
30	0xbdec60e6	-0.115419194
31	0xbe9605ca	-0.29301292
32	0xbdcf6754	-0.1012713
33	0xbdd0314c	-0.10165653
34	0xbdc6b533	-0.0970253
35	0xbe29c4a0	-0.16578913
36	0xbd1c46cc	-0.038153455
37	0xbd3b91f1	-0.045793477
38	0xbe0388b9	-0.12845124
39	0x3d160a86	0.03663113
40	0x3bdf28a0	0.006810263
41	0xbdad35d1	-0.0845753
42	0xbea2945d	-0.31753817
43	0xbdc1437a	-0.09436698
44	0x3da9a10d	0.08282671
45	0xbecacfe4	-0.39611733
46	0xbddd66b9	-0.108106084
47	0x3d78986a	0.06069223
48	0xbe09a320	-0.13441133
49	0xbcc5fa6b	-0.02416726
50	0xbdf8bec4	-0.12145761
51	0xbd871aeb	-0.06596931
52	0xbe28b181	-0.16473962
53	0xbe562406	-0.2091218
54	0xbe1a8382	-0.15089229
55	0xbe019c8d	-0.12657376
56	0xbdc6b06e	-0.0970162
57	0xbe8e76ac	-0.27824914
58	0x3dd59ab3	0.10429897
59	0xbdad76de	-0.08469938
60	0xbd9f8001	-0.07788087
61	0x3dcc9c4e	0.0999075
62	0xbdf6ca01	-0.12050248
63	0x3c6fc4ee	0.014634354
64	0xbddbae75	-0.107266344
65	0xbdbbc858	-0.09169072
66	0xbded7c13	-0.11595931
67	0xbe07e221	-0.13269855
68	0x3dc43364	0.095801145
69	0xbd5d81f3	-0.054079007
70	0x3d8bc97b	0.06825539
71	0xbdfb3361	-0.12265659
72	0x3cbec871	0.023288937
73	0xbd9dfa78	-0.07713789
74	0xbddae3e6	-0.106879994
75	0xbd85482e	-0.06507908
76	0xbe252864	-0.16128689
77	0xbe124b23	-0.14286475
78	0x3dcbd918	0.09953517
79	0x3d025d6f	0.031827386
80	0x3c1ee000	0.00969696
81	0xbddab201	-0.10678483
82	0xbd9fc368	-0.07800943
83	0xbe81df85	-0.25365844
84	0xbe05d8d9	-0.13071002
85	0x3e8d141f	0.27554414
86	0xbe002d52	-0.12517288
87	0xbe92fe1f	-0.28709504
88	0xbe0eb7da	-0.13937321
89	0x3dad4d39	0.08461995
90	0xbd6a9baa	-0.05727736
91	0xbcfa6c1b	-0.030569127
92	0x3cd2ebdb	0.02574723
93	0xbdcd8ebb	-0.10036989
94	0x3d22f31f	0.03978264
95	0xbea10fc2	-0.31457335
96	0xbdbb4adf	-0.0914514
97	0xbe0cc261	-0.13746025
98	0xbda77e62	-0.081784025
99	0xbe807f12	-0.25096947
100	0x3c804de0	0.015662134
101	0xbd345910	-0.04403025
102	0xbdbee472	-0.09320916
103	0x3d5e4e1e	0.054273717
104	0xbddaf38e	-0.106909856
105	0xbdfa4d3c	-0.122217625
106	0xbeb19265	-0.34682003
107	0xbe039ee8	-0.12853587
108	0x3da6011d	0.08105681
109	0xbea4cfaf	-0.321897
110	0xbdabd6a1	-0.083905466
111	0xbd946f67	-0.07247811
112	0xbdf4ef9e	-0.11959766
113	0x3cf03ea9	0.029326754
114	0xbe034b58	-0.1282171
115	0xbe0060c8	-0.12536919
116	0xbd8949b9	-0.067035146
117	0xbe2b6a57	-0.16739784
118	0xbdbe54bf	-0.09293508
119	0xbe33d583	-0.17561917
120	0x3d7ca767	0.061683085
121	0xbe98939b	-0.29800114
122	0x3e2dbfae	0.16967651
123	0xbdd23918	-0.10264796
124	0xbdc13be8	-0.09435254
125	0xbdfe5e77	-0.124203615
126	0xbdcc2098	-0.09967154
127	0x3cf1cf36	0.029517751
128	0xbd807351	-0.06271995
129	0xbdbd78b7	-0.0925154
130	0xbe0ca857	-0.13736092
131	0xbdaa9df5	-0.08330909
132	0x3dac6a1e	0.08418678
133	0xbd42833d	-0.04748844
134	0x3d32aa4d	0.043619443
135	0xbd9d8158	-0.07690686
136	0x3cb8e9ea	0.022572476
137	0xbdb4588b	-0.08805951
138	0xbe01c05b	-0.12671034
139	0xbd83760a	-0.064189985
140	0xbe136cdc	-0.14396995
141	0xbd94e3aa	-0.07269986
142	0x3c1233c4	0.008923475
143	0xbd7f94f6	-0.06239792
144	0x3d30f7cd	0.04320507
145	0xbdc2e00e	-0.09515391
146	0xbd8663a6	-0.06561975
147	0xbeafae1d	-0.34312525
148	0xbdf4fbc6	-0.119620845
149	0x3e2d2603	0.16909032
150	0xbdfd164f	-0.12357771
151	0xbef21e29	-0.47288635
152	0xbd99187f	-0.074753754
153	0xbd1b9d28	-0.037991673
154	0xbd718358	-0.05896315
155	0x3c2351a6	0.009968197
156	0x3d5ad429	0.053424988
157	0xbdddc8ab	-0.1082929
158	0xbcdc70ff	-0.02690935
159	0xbef51e98	-0.47874904
160	0xbdd7ffd5	-0.10546843
161	0xbddd3351	-0.108008035
162	0xbd9f0d18	-0.07766169
163	0xbe3f4f4a	-0.1868259
164	0xbd4bcaac	-0.04975383
165	0xbe23f5d1	-0.1601174
166	0xbdbad8ab	-0.091233574
167	0x3d92ef14	0.07174507
168	0x3d99374e	0.07481252
169	0xbe0c7d74	-0.13719732
170	0xbeca3fd3	-0.3950182
171	0xbe2c40d8	-0.16821611
172	0x3d55dd8f	0.052213248
173	0xbea268f6	-0.31720704
174	0xbdba0913	-0.09083762
175	0xbe3568ab	-0.17715709
176	0xbd848bf5	-0.06472007
177	0x3cd012df	0.025399623
178	0xbde93b1f	-0.113882296
179	0xbe19b82e	-0.15011665
180	0xbe185c30	-0.14878917
181	0xbeadf0d0	-0.33972788
182	0xbdd68949	-0.10475404
183	0xbdbc8de1	-0.09206749
184	0xbce21bb5	-0.027601102
185	0xbea2367c	-0.31682193
186	0xbb7edf2c	-0.0038890345
187	0xbdeb551e	-0.11490844
188	0xbda12900	-0.07869148
189	0xba04022d	-0.00050357246
190	0xbe183ab1	-0.14866139
191	0x3d320842	0.043464907

net.6.bias f4 [3]
0	0xbfaa3dc4	-1.3300099
1	0xbfd4774a	-1.6598904
2	0xbfcd93dd	-1.6060749
