examples/full_project_setup/results/q_table_task3 easy.pt (torch, 21576 bytes, 6 tensors)

net.0.weight f4 [64, 6]
000000 fa e8 75 3e 93 09 0b be 88 40 5d 3e 5a e0 95 be
       0.24014655 -0.13577871 0.21606648 -0.2927273
000010 07 a0 e9 be 4c f4 08 bf 40 9f db 3c 56 9c d7 3e
       -0.45629904 -0.5349777 0.026809335 0.42111462
000020 b1 5d 42 be f9 fb 47 3e dc 5a d4 bc 4f 82 6a 3f
       -0.18981053 0.19529714 -0.025922231 0.91605085
000030 38 8f ed 3d 35 a6 36 be a7 58 f4 be 58 14 e8 3e
       0.115995824 -0.1783684 -0.47723886 0.4532802
000040 1a 77 d3 3e 30 d0 10 3f a0 39 2f 3e 4e 4a b9 be
       0.41301805 0.5656767 0.17111826 -0.36189502
000050 a1 de df 3d d2 cc 05 bf c2 18 3c be 70 e8 92 3f
       0.10931135 -0.52265656 -0.1836882 1.1477184
000060 a8 2f 53 be 61 35 01 bf 4d b2 49 3e 02 8b eb bd
       -0.20623648 -0.50472075 0.19696923 -0.11501123
000070 5a 9d 4a 3e 4e 35 21 bf 28 68 98 be cc 8d e9 bd
       0.19786587 -0.6297196 -0.29766965 -0.11403999
000080 74 e1 b2 be 5a 28 82 3e 08 53 98 3d b0 7d 29 3e
       -0.34937632 0.2542141 0.07437712 0.16551852
000090 f1 c0 e1 3d bd 38 3c bf 56 99 0b 3e 50 eb c5 bc
       0.11023129 -0.73524076 0.13632712 -0.024160057
0000a0 ad 37 c7 3e 1f 57 e2 3c 16 39 95 bd 4c cb c4 be
       0.38909665 0.027629433 -0.07286279 -0.38436353
0000b0 fe 92 63 bd 3d 21 64 3d 10 05 99 bc ee 36 5a 3e
       -0.055560105 0.05569576 -0.018679172 0.21310017
0000c0 a0 3a fb 3d 1b 26 16 bf 02 26 92 3d 6f 06 11 be
       0.12267041 -0.58651894 0.07136156 -0.1416261
0000d0 3f 1e 64 be 93 e5 f1 3e 96 a7 04 3e e7 5c 2f be
       -0.22277163 0.47245464 0.12954554 -0.17125283
0000e0 92 1e 8b 3e 60 bf 7f be 38 51 b1 be c7 11 34 3f
       0.2717176 -0.24975348 -0.34632277 0.70339626
0000f0 81 a3 40 3e a8 56 7c be 86 7a e6 be 8f 4e 83 3e
       0.18812372 -0.24642432 -0.45015353 0.25645873
000100 c6 3e ab 3e f7 5b 8d 3f cc b9 e0 3b f8 27 fb 3d
       0.3344633 1.104369 0.006858086 0.12263483
000110 85 8d 17 3c 0c 63 27 3e 5d bc 7f 3e 4e f5 6c bf
       0.0092500495 0.16346377 0.24974199 -0.92561805
000120 65 fd 49 be 14 41 56 3e 7a b5 bc be fd eb 86 be
       -0.19725569 0.20923263 -0.36857206 -0.2635192
000130 89 ba 8c be 38 40 c8 bd ba 9e 66 3e a1 75 6b 3d
       -0.27486065 -0.09777874 0.22521487 0.057485227
000140 3c 7f 45 be 9c 6f 7f 3d ef 7f eb be c6 f3 35 be
       -0.19286817 0.0623623 -0.45996043 -0.17768773
000150 1f 15 8b 3e 94 17 86 bd 20 2d bf bc 12 3c 9b be
       0.27164552 -0.06547466 -0.023336947 -0.30319268
000160 a7 31 b8 be d4 54 28 bf ab 49 af be 56 04 fa 3e
       -0.35975382 -0.6575444 -0.34235892 0.48831433
000170 7e 56 8a 3d 36 b0 93 3e 25 8a fe 3e 6c 33 5e bf
       0.06754778 0.28845376 0.4971477 -0.86797214
000180 32 52 57 3e 86 65 19 bf 67 9d c3 3d 01 44 bd be
       0.21027449 -0.5992054 0.095515065 -0.36965945
000190 ca 2c 35 be 1c 07 e7 be 3a d5 c8 3d 7a 62 3b bf
       -0.17692867 -0.45122612 0.09806295 -0.7319714
0001a0 5e 17 42 3e 7f 9c 16 bf 12 f3 5b be ff f4 d1 3e
       0.18954226 -0.58832544 -0.21479443 0.4100723
0001b0 b4 9d 9e be 07 be c6 3e c6 05 47 bd 68 25 2c be
       -0.30979693 0.38816854 -0.04858949 -0.16811144
0001c0 71 d3 fc bc 57 1c b7 be 82 51 21 3e 58 88 5e 3e
       -0.030862542 -0.3576381 0.15753749 0.21731699
0001d0 b5 32 6b bc 3e 11 dc bd 58 d2 90 3a 62 df 8a bf
       -0.014355351 -0.10745476 0.0011049015 -1.0849421
0001e0 fb eb 01 bd 4a db 29 bf a7 a5 2e 3e 26 28 b6 be
       -0.03171919 -0.66350234 0.17055379 -0.35577506
0001f0 34 6f 03 bc be 16 37 3f cd f3 08 be fc ab 04 3f
       -0.008022118 0.71519077 -0.13374253 0.5182493
000200 40 bc 49 bc 79 c6 d5 3d 72 e0 dc bd 95 03 22 bf
       -0.012312949 0.10438246 -0.10784997 -0.63286716
000210 7f 87 c9 3d 66 32 c7 be 53 ac f7 bd 2b 63 45 bf
       0.09840297 -0.38905638 -0.12093415 -0.77104443
000220 f4 0d 1d 3e 91 1a 33 3e 44 31 80 3d 49 53 67 bd
       0.15337354 0.17490603 0.06259397 -0.05647591
000230 02 65 17 3e 2d 0d e2 bc b4 52 d7 3d f9 f6 b5 be
       0.14784625 -0.027594173 0.10513821 -0.35539988
000240 2d f2 11 3e bf 96 e9 3e 49 1f 9c bd b8 35 db 3e
       0.14252539 0.45622823 -0.07623155 0.42814422
000250 f3 91 d9 be 3c 75 41 bf 71 a2 4c be 4a 24 25 3d
       -0.42494163 -0.7556951 -0.19983841 0.04031781
000260 ca e6 59 be 8a a2 9b 3e 9c e6 e3 bb 56 28 2d be
       -0.21279445 0.30397445 -0.006954981 -0.16909918
000270 26 0e f4 3c a2 5c 25 be 15 15 1c 3e 51 77 5b be
       0.029791903 -0.16148618 0.15242417 -0.21432234
000280 cb 1f cc be 2e 35 f0 3e f1 1d b5 3d 07 93 75 3e
       -0.39868006 0.46915573 0.088436015 0.23981868
000290 19 d2 71 be 7f ec c3 bd cf d5 7a 3c c5 3b 6f bd
       -0.23615302 -0.095665924 0.015309765 -0.05840661
0002a0 5d bd b5 be 0c e9 d5 be bd ee 8c bd 9a a7 e8 3e
       -0.35496035 -0.41779363 -0.06881473 0.4544037
0002b0 ce de 7d be bd 8a bc be 88 65 30 3d 85 de 9a be
       -0.24792024 -0.368246 0.043065578 -0.30247894
0002c0 5f 87 39 3e 56 3f 35 3e ba ab a6 bd 47 66 47 3d
       0.18118046 0.17699942 -0.08138223 0.048681524
0002d0 77 28 a3 3e 31 f3 9d 3e a8 60 85 be 7d 1a 6f 3d
       0.3186681 0.30849603 -0.26050305 0.05837487
0002e0 be 85 37 bf d9 3e ce 3d e9 05 55 3e ad 7a 3f bf
       -0.7168845 0.10070581 0.20803036 -0.74796563
0002f0 74 54 66 3e 67 d7 38 bf 8c f6 db 3e e1 ec 58 be
       0.22493154 -0.7220368 0.42961538 -0.21184112
000300 f1 67 61 be 4e 6e 02 bf 5b 89 42 3e 1f ff 80 bc
       -0.22012307 -0.5094956 0.1899771 -0.015746651
000310 81 cd e3 3e 7f 08 0d bf da 43 3e be a7 9c 3f be
       0.44492725 -0.5509109 -0.18580571 -0.18712102
000320 b3 a0 86 be 08 24 5d 3e a4 4e 08 be f8 bf b1 bd
       -0.2629448 0.21595776 -0.13311249 -0.08679193
000330 cb e7 b8 3d 51 53 17 bf ed 9e 2d 3e 6e 8e 10 bf
       0.09028586 -0.59111506 0.16955157 -0.5646733
000340 7f 18 46 bb 8c b7 35 3f e8 4e 0c bd f8 07 5d bd
       -0.0030227003 0.70983195 -0.03425494 -0.053962678
000350 e6 0e c3 be 52 05 1b be 13 21 c7 be a0 08 cb be
       -0.38097304 -0.15138748 -0.3889242 -0.39655018
000360 bb a3 87 3e d1 9a a7 be 0c d4 34 bc ab ed 29 be
       0.26492104 -0.32735303 -0.011036884 -0.1659457
000370 fa 55 32 be e4 6b d3 3d ff 50 93 3e ce f9 96 bc
       -0.1741561 0.10323313 0.28772733 -0.018429663
000380 e7 3f 42 3e 1e 8e c3 be 9f 1f a4 bf 6f 82 04 be
       0.1896969 -0.38194364 -1.282215 -0.12940381
000390 bb 8e 3c 3e b1 ca a8 bd 6d b2 71 3d c0 e8 e9 bc
       0.18413822 -0.08241785 0.05900805 -0.028553367
0003a0 9d 66 5a bf 45 9e f0 3d 5e 2e 90 bc de 42 07 3f
       -0.85312825 0.117489375 -0.017600235 0.52836406
0003b0 4f 55 0a bd 75 d3 19 3e e4 a2 51 3e 3c 25 13 bf
       -0.033772763 0.1502207 0.20472294 -0.5747869
0003c0 cc 0a 10 3e a3 95 30 bf 47 ad b1 be ce 44 c5 be
       0.14066619 -0.6897833 -0.34702513 -0.38529056
0003d0 1e c9 c9 be f2 a4 8f bd ce 09 20 3d 21 44 3b be
       -0.39411253 -0.07013883 0.03907185 -0.18287708
0003e0 72 34 f2 3d ed 78 90 bd 30 bc 85 be 54 04 20 bf
       0.118264094 -0.07054315 -0.26120138 -0.62506604
0003f0 80 78 8a be c5 fd a9 be 08 e3 9d be 2d f0 29 be
       -0.2704506 -0.33201423 -0.30837274 -0.16595526

net.0.bias f4 [64]
000000 f2 e8 3e 3e d1 de 92 bd 2a 82 d4 3d 9b 1a 5c 3d
       0.18643549 -0.07171405 0.10376389 0.05373631
000010 b6 92 b4 3d 37 ec 27 be eb 22 87 be 5d 04 6a be
       0.088170454 -0.16398703 -0.26393828 -0.22853227
000020 86 6b dc be 0c 43 8e be e5 aa 42 bd de 62 9d 3d
       -0.43050784 -0.27785528 -0.04752626 0.07684873
000030 74 92 83 3e dd d5 3b be b4 00 96 3e 39 bd 84 be
       0.25697672 -0.18343301 0.2929741 -0.25925615
000040 d4 24 b5 be 9c 68 18 bf e2 81 67 3e 4e 8e 2a 3e
       -0.3537966 -0.5953462 0.2260814 0.16655847
000050 71 7b 06 3e 15 4b 6f 3e cd b6 56 3e b8 97 c7 bd
       0.13133027 0.23368485 0.2096817 -0.09745735
000060 63 fe 1e be 19 89 2f be a7 3d a1 3e 5b 3b 55 3e
       -0.15526728 -0.17142142 0.3149235 0.20823424
000070 d9 5c b4 be 15 34 ff 3c 94 5d ab 3e e2 79 13 bf
       -0.35227087 0.031152764 0.33469832 -0.57607853
000080 62 e9 bd 3e 98 d3 8d be 09 0c d3 be f6 fa 9b 3e
       0.3709212 -0.27700496 -0.4122012 0.30464906
000090 58 fb b6 3d 20 86 17 bf 88 27 e5 be e9 d9 d9 be
       0.08934659 -0.59189034 -0.44756722 -0.42549065
0000a0 e3 cf 37 3e 0b ee bf 3d 12 1f ad be 82 2d 15 bc
       0.17950396 0.09371575 -0.33812767 -0.009105088
0000b0 76 f9 07 be 4f 17 f1 be 6a 00 1e be f0 e3 1f bd
       -0.13278756 -0.47088096 -0.15429845 -0.039035738
0000c0 62 7d 2c 3e b4 f5 a1 be 30 d0 a2 be 49 89 c8 3d
       0.16844705 -0.3163277 -0.3179946 0.0979181
0000d0 e4 38 56 3d e1 98 52 3e d2 ef 95 be a9 80 c9 3e
       0.05230035 0.20566131 -0.2928453 0.39355972
0000e0 d6 7d aa bd f4 2a 5e 3e e9 06 48 bd ff cb f4 bd
       -0.083247826 0.21696073 -0.048834715 -0.11952972
0000f0 a6 6f 94 be 68 a8 c0 bd 90 f9 c4 be 23 a4 22 3e
       -0.2899143 -0.09407121 -0.3847165 0.15882926

net.3.weight f4 [64, 64]
000000 40 f2 fa 3a 3c 30 d7 bc 98 99 88 bd 18 d2 be 3d
       0.0019145682 -0.026268117 -0.06669921 0.09317416
000010 20 72 8b bd 6c 79 4b bd 29 28 62 bd d9 6b 98 3d
       -0.06808877 -0.049676344 -0.05521408 0.07442445
000020 00 33 6b bd 83 58 e9 bc 38 6b 92 bd e5 fc 83 3c
       -0.057421684 -0.028484588 -0.071493566 0.0161118
000030 e2 5a 98 bd 85 e2 80 bd 51 df 9a bd 0f 41 2a bd
       -0.074392095 -0.06293205 -0.075621255 -0.04156595
000040 fb 3f fb 3d a1 d1 84 bd 67 d8 c3 bd 9d c5 7b b9
       0.12268063 -0.06485296 -0.0956276 -0.00024010842
000050 fa 41 8a 3d 5b c1 a4 bc c8 57 12 3d df e9 d5 bd
       0.06750865 -0.02011173 0.035728246 -0.10444998
000060 14 db 09 bd 86 1d b6 3d 7b 4a c0 3d 1d dd 08 be
       -0.033656195 0.0889235 0.09389206 -0.13365598
000070 ca 8a ec bd 46 37 73 bd 54 96 cb bb 29 db a3 bc
       -0.115499094 -0.059378885 -0.006212989 -0.020001965
000080 39 95 92 3b f4 f3 e3 bd b8 80 d1 bd e0 0c 54 bc
       0.004473355 -0.11130515 -0.10229629 -0.012942523
000090 87 44 58 bc 20 fe e5 bd 7c 65 a2 3d ec 7c c4 bd
       -0.013199932 -0.11230111 0.07929513 -0.095941395
0000a0 c0 b8 ba 3c c1 c3 3b 3d 00 54 6c ba 27 fe c2 3b
       0.022793174 0.045840982 -0.00090152025 0.0059507075
0000b0 ec 52 82 bd 5f 8e 36 3d f5 c5 43 3d 7a 25 c6 bd
       -0.06363472 0.04456937 0.04779621 -0.09675117
0000c0 c2 19 21 bc 3c 16 07 be 00 e0 5d 3a 0b 22 03 be
       -0.009832801 -0.13192075 0.00084638596 -0.12805955
0000d0 89 20 fb 3c 00 09 0b 3a 64 8c 04 bd 95 5e f0 bd
       0.030655162 0.00053037703 -0.03236045 -0.1173679
0000e0 fc 8c b1 3d 0c 43 f7 3d f6 cb 7b bd 40 8c 1b be
       0.08669469 0.12073335 -0.06147381 -0.1519022
0000f0 5d 7d fd bd b0 8c 7b bc 60 d3 a2 3d 2c 91 d5 3d
       -0.12377427 -0.015353367 0.07950473 0.1042808
000100 45 df 3c 3c 7b b7 7d bc 20 e9 a3 3d 86 45 41 bd
       0.011527841 -0.01548564 0.080034494 -0.047185443
000110 be 6d 46 3d 20 59 23 bd ae 3e 7b bd af 0c 95 3d
       0.048444502 -0.039879918 -0.061339073 0.0727781
000120 cf 33 fd 3c 00 d9 bf bd 07 3c a1 3d 21 68 00 be
       0.030908493 -0.09367561 0.078727774 -0.12539722
000130 7c dc f6 3d f5 dd 30 3d 66 6c 37 bd a0 f8 89 bd
       0.12053773 0.043180425 -0.04478111 -0.067368746
000140 cd 23 b5 bd 4f c2 14 be ef f6 16 3b 62 3f da bd
       -0.08844719 -0.14527248 0.0023035367 -0.106566206
000150 61 ed 5d bd a0 7d a8 3d 9a 2f f7 bb 71 82 75 3d
       -0.05418146 0.08227086 -0.0075435163 0.05993885
000160 23 ff ca bc c7 82 c4 bd a4 a1 9d bd 27 ef 66 3d
       -0.024779862 -0.09595256 -0.07696846 0.056380417
000170 01 9c 2b 3d b3 db 58 bd 2d ab d6 bd b2 e3 56 3d
       0.041896824 -0.052943897 -0.10481868 0.05246324
000180 18 df d4 bd d8 04 8d 3d 14 d6 ae bc 6c 14 ff bd
       -0.10394114 0.068856895 -0.021342315 -0.12455067
000190 ba 0c 42 3a 8d bb 6c 3c 31 b5 96 3d 4e 70 86 3d
       0.0007402409 0.0144490125 0.07358778 0.06564389
0001a0 37 05 de bd 31 dc b9 bd 90 23 0e bd f0 40 bf bd
       -0.108408384 -0.09075201 -0.034701884 -0.09338558
0001b0 00 4f b5 3d 62 b3 12 3e d9 fb b6 bd cc 91 7f bd
       0.08852959 0.14326242 -0.08934755 -0.062394902
0001c0 29 51 1b bb 65 77 96 bc 30 bf e1 bd b5 ae ba bd
       -0.0023699498 -0.018367479 -0.11022794 -0.09115354
0001d0 5e d7 b6 3d 27 04 16 be fc f0 c1 bd 2d 91 fb bd
       0.08927797 -0.14650021 -0.09469792 -0.122835495
0001e0 52 d9 3e bb 35 f4 c9 3c ef 4e 38 ba 00 40 82 bc
       -0.0029121232 0.02465258 -0.0007030805 -0.015899658
0001f0 5f f9 24 3d 48 7d d0 bd f4 99 f0 3d 78 23 29 3e
       0.04027688 -0.101801455 0.11748114 0.16517437
000200 87 70 ac 3c b2 4d 6b be 24 d5 02 bd 91 99 04 bd
       0.021049751 -0.22978857 -0.031941548 -0.032373015
000210 cb f9 e9 bd c8 98 b2 bc 25 38 21 3c b7 d0 de bc
       -0.11424597 -0.021801367 0.009840046 -0.027199132
000220 a7 a1 3c bd 79 4d c0 3c 00 ef 0e be a3 39 31 3d
       -0.0460526 0.023474442 -0.13958359 0.043267857
000230 c0 d0 bd bc de ce 4b be f0 20 8d 3d 39 89 07 3e
       -0.023170829 -0.19903132 0.06891048 0.1323594
000240 f1 85 90 bd 9a 50 cd 3d 1a a4 4d be 65 37 1b 3d
       -0.07056797 0.10025139 -0.20082131 0.037894625
000250 ff 35 f0 bd e1 86 91 bd 7e a5 93 3d 43 a7 cc bc
       -0.11729049 -0.07105804 0.072092995 -0.0249821
000260 c9 23 cd bd 7c 89 62 bd 19 b3 a0 bb 32 1b 2f be
       -0.10016591 -0.055306897 -0.0049041626 -0.17100218
000270 d7 72 4d be 0a 35 64 bb 31 01 79 be 6d 3a 03 3d
       -0.20063339 -0.0034821653 -0.2431686 0.03203814
000280 c0 e9 31 3d cc 56 1b bd 86 af 13 be 7c 69 ca 3d
       0.043435812 -0.037924573 -0.14422426 0.09883401
000290 cf fd cd bc f8 f8 50 3c 1e 58 17 bd 22 b6 c9 3d
       -0.02514544 0.012754671 -0.03694927 0.09849192
0002a0 85 bd 1e 3d b3 82 f5 3d 70 f3 11 bd a5 40 c6 3c
       0.03875496 0.119878195 -0.03563255 0.024200747
0002b0 48 31 b0 3c 97 16 d8 bd da 33 26 bd 2c e9 ef bd
       0.021507874 -0.10551184 -0.040576793 -0.11714396
0002c0 01 b3 a8 3d a4 a3 1b bc e0 27 aa bd 92 e3 82 3d
       0.08237267 -0.009499464 -0.08308387 0.06391062
0002d0 ff b0 ef 3d f2 f3 bd 3d 18 93 7d bd 58 6d d8 3d
       0.11703681 0.092750445 -0.061907858 0.10567731
0002e0 f5 65 54 3d 36 1f a8 3d 30 6e 58 be e4 20 53 3e
       0.051855046 0.08209078 -0.21135783 0.20618016
0002f0 26 fe de 3c 00 01 24 3a d0 64 ab bd 9e 9b 19 3c
       0.027220797 0.00062562525 -0.08368838 0.009375481
000300 09 a8 49 3d 3c 3e 2f 3d d5 e2 79 bd 00 b0 2c bd
       0.049232516 0.04278396 -0.06100734 -0.042160034
000310 cc 32 8c 3d 90 c7 c9 bd 8f bc db bc 81 98 ec 3d
       0.06845626 -0.09852517 -0.02682331 0.11552525
000320 d1 6c 9e 3d bf 11 a2 3d 69 7b 98 3a 2b 76 90 3d
       0.07735599 0.07913541 0.0011633459 0.07053789
000330 9e 2c d6 3d 26 63 c9 bd a7 fe 3a 3d 69 6e 71 3d
       0.10457729 -0.09833364 0.04565301 0.058943186
000340 ce 9a 4e 3d 1e 80 65 3d de c3 b4 bc fb a6 53 3d
       0.050440602 0.056030385 -0.022066053 0.051672917
000350 35 21 12 3e 81 d3 b2 be 05 c1 c1 3d b8 e4 fb bc
       0.1427048 -0.3492699 0.09460644 -0.03074871
000360 78 7c d7 bd ca ea 42 3d 18 d2 86 bd b0 7b 8f bd
       -0.105217874 0.047587194 -0.06583041 -0.070060134
000370 a3 51 82 3e 78 1d 9a 3c 89 17 be bd d2 84 11 3d
       0.2545291 0.01881288 -0.09281833 0.035527058
000380 5d 74 a4 3d bc e5 5e 3d cd 1e 09 3c e0 ed 05 3d
       0.08030007 0.05441831 0.00836916 0.03269756
000390 aa 12 4f bd 0c 62 95 bc 87 b8 f6 bd 17 f9 13 be
       -0.05055491 -0.018235229 -0.120469145 -0.14450489
0003a0 27 a0 0f 3c 1f e8 da bd 04 53 d7 3d fa 13 6f bd
       0.008766211 -0.10688805 0.10513881 -0.05836866
0003b0 36 2e b5 3d 27 44 5b 3d 1c b6 a8 3d e8 11 fd bd
       0.08846705 0.053531792 0.082378596 -0.12356931
0003c0 42 87 1f bd f6 e2 d5 3d 00 a1 93 ba 9d f5 54 3c
       -0.03894735 0.1044368 -0.0011263192 0.012998012
0003d0 ec 0b c9 bd b8 81 d2 bc ec 61 4c 3d 32 73 17 be
       -0.09816727 -0.02569662 0.049898073 -0.14790037
0003e0 86 ad 9a bc 38 73 21 bd 54 9a 1c 3e da 72 52 3c
       -0.01888157 -0.03941652 0.15293247 0.012844766
0003f0 b0 1d 1b 3d ec 14 e5 3d 48 14 fa bc 85 a8 41 bd
       0.03787011 0.11185631 -0.030527249 -0.047279853

net.3.bias f4 [64]
000000 19 f4 4f 3d b0 49 0d 3c be 6a 17 3e 31 6d 7e bd
       0.0507699 0.0086235255 0.14786813 -0.06211585
000010 af e6 a3 bd b5 1f 4b be 5b a3 3f bd 68 fd 20 bd
       -0.08002984 -0.19836314 -0.046786647 -0.039304167
000020 b8 d5 19 be aa 88 51 bd b9 9b a0 3c b0 10 e1 bc
       -0.15022933 -0.051155724 0.019605504 -0.027473778
000030 57 c5 2c 3e a9 f7 bf bd f1 66 9e bd f8 6b af bc
       0.16872154 -0.09373409 -0.07734478 -0.021413788
000040 95 d1 2a be 34 99 68 3d 10 d7 96 bd c2 e5 bd 3d
       -0.16681512 0.05678673 -0.07365239 0.092723384
000050 0e 30 0b 3e 1c a7 c1 3c 3a 72 4d bc e6 9e 04 3e
       0.1359255 0.023639254 -0.012539441 0.1295124
000060 31 55 b2 3d bd 76 03 bd 89 26 b0 3d 4b 79 92 3d
       0.08707655 -0.03209566 0.086011 0.07152041
000070 25 4f 97 3d f5 99 0d be dd 05 d4 3b 14 55 31 3c
       0.073881425 -0.13828261 0.0064704255 0.010823507
000080 ba e3 13 bd 82 90 bb 3d cd 68 fe 3d a3 0c ff 3d
       -0.03610585 0.09158422 0.12422333 0.12453582
000090 b4 02 0f 3e 0e ec b2 3d 24 bb 33 3e fc 25 32 be
       0.13965875 0.0873643 0.17551857 -0.17397302
0000a0 d1 3e 51 bd 79 58 d2 3d 38 1c b4 bc 71 60 b6 3d
       -0.051085297 0.10270781 -0.021986112 0.089051135
0000b0 ee 5e 7a 3e 94 24 f5 3d 45 bb 96 3e cd 68 37 bd
       0.24450275 0.11969867 0.2943975 -0.04477768
0000c0 c3 33 d7 bd 14 30 18 3e 5f 3f ab 3d e9 6a eb bc
       -0.1050792 0.1486209 0.083616965 -0.028737502
0000d0 26 b6 63 3e ef af 69 3d 8f 37 bc bd dd 45 51 3e
       0.22237453 0.05705255 -0.091902845 0.20436807
0000e0 0b ba 82 3d ef 94 85 bd 6f cc 4e bd 35 16 63 3d
       0.06383141 -0.065225475 -0.05048793 0.0554411
0000f0 09 b8 e0 bb da 49 18 be 1b b0 4f 3d 8e 59 0b 3d
       -0.006857876 -0.14871922 0.050705057 0.034020953

net.6.weight f4 [3, 64]
000000 58 64 92 3d 0e a9 93 bd c1 18 71 bd 2e 72 3c 3d
       0.07148045 -0.07209979 -0.058861498 0.046007328
000010 b3 5a 96 3d 95 ae 52 3e 2f 15 37 bc 89 dc a4 3d
       0.07341518 0.2057441 -0.011174484 0.08049876
000020 cc 21 c2 3d 00 cf 5c 3d b2 32 45 bb cc d7 d8 bd
       0.094791025 0.053908348 -0.0030090031 -0.10588035
000030 64 b9 ee 3c d8 1e a9 bc 97 5d 72 be ea ea 2d 3e
       0.029141136 -0.02064459 -0.23668514 0.16984144
000040 81 70 ad bd 26 00 8c bd 96 d5 af be 7e a7 9e bc
       -0.08468724 -0.06835966 -0.3434264 -0.019366976
000050 ed e8 eb 3c 0f 45 a6 3b 98 4a bc bd 50 ab 8f be
       0.028797591 0.0050741504 -0.09193915 -0.2806039
000060 1b b9 8a 3d 12 83 42 3d df 81 e5 bd 33 a9 87 3d
       0.06773587 0.04748828 -0.112064116 0.06624069
000070 32 35 e9 bc f0 15 cf bd b9 52 d5 bb 7c fd 93 3c
       -0.028467748 -0.10111606 -0.0065101054 0.018065207
000080 50 5b 1b 3e aa 79 24 bd df 6c a4 3d f6 43 53 bc
       0.15171552 -0.04015509 0.08028578 -0.012894621
000090 1c cd 33 bd 10 32 af 3d 03 39 84 be 12 79 4d 3d
       -0.04389678 0.085544705 -0.25824746 0.05016429
0000a0 7c b3 6c bd b9 a7 df bd bc 04 aa 3d f9 26 dd 3c
       -0.057788357 -0.109206624 0.08301684 0.026996123
0000b0 25 38 d8 bc 02 2e 7f 3d 74 91 d6 3d 33 90 d2 bd
       -0.02639396 0.062299736 0.10476962 -0.1028141
0000c0 35 9c db 3d 6a b5 7d be 06 f2 02 be f3 8e aa 3d
       0.107231535 -0.24776235 -0.12787637 0.08328047
0000d0 48 f4 1d 3d e6 83 a9 bd 28 59 31 bd cc 6f e6 3b
       0.038563043 -0.08277111 -0.043297917 0.00703237
0000e0 dd 0f 1d 3d 42 5d 07 3e 07 f1 b3 bd 17 49 40 bd
       0.038345207 0.13219169 -0.08786207 -0.046944704
0000f0 09 e3 58 3d f4 c2 44 bc 1f 43 5b 3d 7b 49 39 3e
       0.052950893 -0.012009371 0.05353081 0.18094437
000100 89 43 cc bd c6 10 2e 3c 0a 50 a0 bc 07 95 9e bc
       -0.09973819 0.010624116 -0.019569416 -0.019358171
000110 59 6c 08 bc 33 d9 5a 3d 8f 80 49 bd 54 5b 00 3c
       -0.008326613 0.053429794 -0.04919487 0.007834274
000120 f0 4f 6d bc b5 93 06 bd 95 66 a7 bb f8 b9 2e bd
       -0.014484391 -0.03285571 -0.0051086643 -0.042657822
000130 57 61 8a 3d 93 1f 25 bd b7 3b 18 bc 91 7a 66 bd
       0.06756847 -0.040313315 -0.009291581 -0.056269232
000140 2d 85 b0 3d a3 70 e1 bc 6b a1 b0 bd e0 d1 a1 3c
       0.08619151 -0.02751953 -0.08624538 0.019753397
000150 7e 3c 1a 3d 54 a7 19 3a 8c 14 44 bc 37 98 9c 3c
       0.037655346 0.00058614207 -0.011967789 0.01911555
000160 a6 1b ee bc b5 1e 76 3d f9 4f e1 bc 20 9d 2b 3d
       -0.029065918 0.06008788 -0.027503954 0.041897893
000170 e4 bb e8 3d 39 bb 88 3c f5 cf 8a bd d1 d5 70 bd
       0.11363962 0.016690837 -0.06777946 -0.05879766
000180 50 60 c7 bd 78 45 7b 3c ca 73 9a 3c 87 c8 79 bd
       -0.09735167 0.015336387 0.01885404 -0.060982253
000190 3e b3 b8 bc 47 3a 7a 3d 87 d1 c8 3c 70 e5 23 3d
       -0.022546407 0.061090734 0.024513973 0.04001373
0001a0 91 0d fc bc 71 f2 31 bc 34 dc a3 3c fe d6 1d bd
       -0.030768188 -0.010861025 0.020002462 -0.03853511
0001b0 55 dc db 3d 16 a8 fc bc b8 f0 dc 3d d3 2b 8b bd
       0.107353844 -0.030841868 0.10788101 -0.06795468
0001c0 81 3e a1 bc 80 cf 7b bd 57 1d 08 bd dc 3b ff ba
       -0.019683124 -0.061477184 -0.033231106 -0.0019472796
0001d0 a8 d1 f8 3d 4d c8 02 3e de 0a 56 bc fe 6d 97 3d
       0.12149364 0.12771721 -0.013064114 0.07394026
0001e0 47 4e 33 3d 97 a4 cc bc cf dd 93 bc 45 8c 1a bd
       0.043775823 -0.024980826 -0.018050103 -0.037731428
0001f0 a3 ae fb bc c2 45 4f bd 19 74 d1 bb ae ac 39 bc
       -0.030722922 -0.050603636 -0.0063920137 -0.011332674
000200 30 67 97 3d 09 4c a4 3b c2 61 92 bd 5f 4d a2 bc
       0.07392728 0.005013947 -0.07147552 -0.019812284
000210 3c 01 c8 bd fb 67 ff 3c 28 32 65 3c 06 7a 82 3d
       -0.097658604 0.031177511 0.013989009 0.063709304
000220 f3 e5 15 3d d4 47 ac bd 35 93 61 bb 2e f2 04 bd
       0.03659625 -0.08412138 -0.0034420018 -0.032457523
000230 af 24 4c 3d 0b e8 0c bb 35 52 96 bc 3f 36 ad bd
       0.04983967 -0.0021500613 -0.018349746 -0.08457612
000240 d8 93 f8 bc 8b a8 25 bd 27 f4 85 bd aa 98 ce bc
       -0.030343935 -0.04044394 -0.06540709 -0.02521928
000250 6e 41 cf 3c aa dc e1 bc b9 5e bf 3b 5c f5 05 3c
       0.025299754 -0.027571041 0.0058401492 0.008176174
000260 ce bc 2f 3d 53 37 a5 3d ae 85 53 3d ef 0f df 3c
       0.042904668 0.08067193 0.05164116 0.027229277
000270 1e e3 89 3d 52 f7 ac bc f8 bc 0a 3b 3e ca c3 bd
       0.06732772 -0.021114025 0.0021169763 -0.09560059
000280 27 17 54 bc 43 1b 9f bc 15 53 0c 3d cf c0 d1 bd
       -0.012944973 -0.01942218 0.03425892 -0.102418534
000290 e7 7f d2 bc 1e 49 6d 3d f1 18 06 3b 2d 6e 99 bd
       -0.025695754 0.057931058 0.0020461644 -0.074917175
0002a0 10 07 00 3d 25 63 c4 3c 7d 6a 80 bd ed fd 7c 3c
       0.031256735 0.023973057 -0.06270311 0.0154414
0002b0 4a b4 bd 3d 70 35 25 3d 34 f8 f1 3d c7 43 71 bd
       0.09262903 0.040334165 0.11814919 -0.058902528
0002c0 1f 51 8d 3b b4 2b 14 bd d8 b8 9c bc b4 9b 09 bd
       0.004312649 -0.03617449 -0.01913111 -0.033595756
0002d0 26 46 ff 3d d3 90 16 bd d9 e0 7d bc 0b 29 8b 3d
       0.12464552 -0.03675921 -0.015495502 0.06794938
0002e0 1c 4c 85 bc 3f 61 b9 bc d4 cb 85 bc 1a 5c 01 bd
       -0.016271643 -0.022629378 -0.016332544 -0.031581976
0002f0 d5 01 26 bc 4e 11 d4 bd c9 99 8d bd 9f 61 b3 3c
       -0.010132273 -0.10354863 -0.06914098 0.021897135

net.6.bias f4 [3]
000000 29 92 43 be 39 5e a9 be 45 86 ef bd
       -0.19098724 -0.330797 -0.11695532
