examples/full_project_setup/results/q_table_2.pt (torch, 21576 bytes, 6 tensors)

net.0.weight f4 [64, 6]
000000 8e 82 c2 bc 1a 9b 0b bf 82 f7 50 3e 0a 91 35 be
       -0.023743894 -0.5453354 0.20406917 -0.1773111
000010 93 a1 45 bf ac 18 bb 3f bc 34 0d bc 56 49 8f bd
       -0.7719967 1.4616904 -0.00861853 -0.069964096
000020 29 d0 6d be 16 8a 41 be 9a 19 92 be d7 35 16 3f
       -0.23223938 -0.18900332 -0.28535157 0.58675903
000030 a2 fe a3 be 3b 01 87 3d 4c a8 dc be 64 3d b0 3e
       -0.32030207 0.065920316 -0.4309715 0.34421837
000040 7b 41 66 be 55 38 bd 3e a8 d9 fe 3d 67 9a 22 be
       -0.22485916 0.3695704 0.124438584 -0.15879212
000050 14 7b ca be e7 74 1c 3d 86 dc 78 3e 24 3d 71 be
       -0.39547026 0.038197424 0.24302873 -0.2355848
000060 e1 8d 89 3d f0 15 b0 3e 60 8a 0e be 12 e2 b5 3e
       0.067165144 0.34391737 -0.13919973 0.3552404
000070 78 dd 08 3f 33 d1 3e be 14 20 5b 3e a2 93 d0 be
       0.53462934 -0.1863449 0.21398956 -0.40737635
000080 97 47 38 be fa 6f 16 3e 92 18 10 bf 2c 10 27 bf
       -0.1799606 0.14691153 -0.5628749 -0.6525905
000090 50 0e 00 bf ed c8 e1 be 21 24 ae bc 97 44 c3 3e
       -0.5002184 -0.44098607 -0.021257462 0.38138267
0000a0 d6 8b 1f be d8 cc c7 be ab 35 6d 3d 6c 5b f4 be
       -0.15580687 -0.3902347 0.05791251 -0.47726
0000b0 f7 6a 4c be 93 11 42 bf 32 a2 91 3e ac 2a 7a 3f
       -0.19962679 -0.75808066 0.28444058 0.9772136
0000c0 18 29 d1 bd 94 59 1e 3f 90 f0 a5 be 87 27 85 be
       -0.10212916 0.61855435 -0.32410097 -0.2600672
0000d0 4a ae 96 be 01 ea b2 be c4 f7 f1 bd 5e db 77 be
       -0.29429847 -0.34944156 -0.11814836 -0.24204776
0000e0 00 b4 8b b9 80 91 18 be a0 25 f3 bd 40 23 6d be
       -0.00026646256 -0.14899254 -0.11872411 -0.23157978
0000f0 6a 20 5d be dc df 10 bf 94 36 aa 3e 7a c6 f2 be
       -0.21594396 -0.5659158 0.33244765 -0.4741705
000100 41 4c e8 be 40 95 6d 3e 69 4b c0 be 7a e8 d0 be
       -0.45370677 0.23201466 -0.37557533 -0.40802366
000110 33 12 42 be d8 c5 d3 3d a2 ec 88 3e b3 8d 2e be
       -0.18952255 0.1034047 0.26743037 -0.17046241
000120 04 fd aa be 10 29 50 bd 00 45 0b bb c0 38 09 bd
       -0.3339616 -0.05082041 -0.0021250844 -0.033501387
000130 b0 8f 8d bd 74 16 8a 3d e5 c2 ba bc 23 14 27 3e
       -0.06912172 0.06742564 -0.022798011 0.16316275
000140 99 bf dd be ad 86 09 be 5c d2 93 3e 4e d4 55 be
       -0.4331024 -0.13430281 0.2887143 -0.20881769
000150 3d 6b 07 3e 1d ec 90 bd 01 e9 6a be 1c a4 aa 3e
       0.13224502 -0.07076285 -0.22940446 0.3332833
000160 54 dd ae bb f8 a4 1f bf 40 22 a7 be 7d e3 d9 3c
       -0.005336443 -0.623611 -0.32643318 0.026597733
000170 c1 37 a1 3e 98 51 b0 3e 18 41 c8 3e 1c ae bc 3e
       0.3148785 0.3443725 0.39112163 0.36851585
000180 d6 7d 2d be 9e 0a c9 3e d2 15 a6 bb f0 44 60 3e
       -0.16942534 0.39265913 -0.005068519 0.21901298
000190 0b 4a 23 3f 6f aa 41 bf 56 ad 17 be ea 9c b4 be
       0.63784856 -0.75650686 -0.14812216 -0.35275966
0001a0 00 e6 c5 be de 55 89 3e 60 9a be 3c 78 db 38 3d
       -0.3865204 0.26823324 0.023266971 0.045131177
0001b0 2b 4d ca 3c 93 96 d1 be 41 b4 94 3e 3e 19 60 bf
       0.024695 -0.40935192 0.29043773 -0.87538517
0001c0 dc f7 4d be a2 99 e4 3f ea 72 1a bd 89 a2 c8 3e
       -0.20114082 1.7859385 -0.037707247 0.39186504
0001d0 d2 79 e0 bd c9 cc f0 3e d0 9b 85 3e ff aa 8e bf
       -0.109607354 0.4703124 0.26095438 -1.1145934
0001e0 2e d8 b8 3d 98 d6 83 3e f5 20 23 bf 25 9c ac be
       0.09025608 0.2574966 -0.63722163 -0.3371288
0001f0 ce a6 7b bd d0 05 25 bf 95 f2 07 3e e7 96 95 be
       -0.061438374 -0.64461994 0.13276131 -0.29216692
000200 3e 6b 42 be bb bf a6 3d 75 f2 a8 be 87 cc 1a 3e
       -0.18986222 0.081420384 -0.3299748 0.15117083
000210 77 39 0b 3d 7a 3a de 3d 95 96 3b bd ee ec 17 bd
       0.03399035 0.10850997 -0.045797903 -0.037091188
000220 16 06 3b 3f dd e9 02 bf 01 77 4c ba c1 4b 0d 3e
       0.7305616 -0.511381 -0.00077997154 0.13798429
000230 d0 8e bf 3d 79 f9 ae bd 2a 4d e7 3e 09 1b 9b be
       0.09353411 -0.08543677 0.4517606 -0.30294064
000240 54 5d 1b 3e 66 39 8f be ef d9 69 bc c6 a6 a7 be
       0.1517232 -0.2797348 -0.014273151 -0.32744426
000250 25 cb 96 bd 6d 28 c5 3e 0d e1 c0 3d 89 3f c4 3e
       -0.073629655 0.38507405 0.09417925 0.38329723
000260 61 07 6c be 2f 88 d9 3e 8c b7 4c 3d 4c 9b 21 bf
       -0.2304969 0.42486712 0.04997973 -0.6312759
000270 eb 9f 11 3d 00 a0 c4 3d ae f1 48 3e 86 2f d7 bd
       0.0355529 0.0960083 0.19623443 -0.10507111
000280 ef 99 2c 3e 7e bf 22 3f 8f ee b3 be ae d3 68 3e
       0.16855596 0.63573444 -0.35142943 0.22737
000290 a9 d0 b0 be c0 09 08 be eb 32 7a be 2c 4d b6 3e
       -0.34534195 -0.1328497 -0.24433486 0.35605752
0002a0 8b d5 01 bd 68 c5 71 3e a1 05 32 bd 00 45 92 3e
       -0.03169779 0.23610461 -0.0434624 0.28568268
0002b0 0e 30 77 3f 46 d5 cb bf a4 b5 44 3d 99 0e 4b bf
       0.965577 -1.5924461 0.04802479 -0.7931915
0002c0 54 48 a1 3e a1 8c ef be 0a 0d 81 bf cb b6 92 3f
       0.31500494 -0.4678698 -1.0082104 1.1462034
0002d0 22 e2 9f 3a d6 77 15 bf f3 27 87 3e 18 52 14 bf
       0.001219813 -0.5838598 0.26397666 -0.57937765
0002e0 13 2f f9 be ac cc 79 3f 49 31 b7 3d c1 b0 fb 3d
       -0.48668727 0.9757793 0.08944947 0.122895725
0002f0 3a be d4 be 33 2c 40 be 66 b1 db be a5 91 1f bf
       -0.4155138 -0.1876686 -0.42908782 -0.6233161
000300 56 71 0d bd ae 3e 04 3e e5 19 4a 3e 52 e4 55 3e
       -0.034531914 0.12914535 0.1973644 0.20887879
000310 48 e6 86 3f 55 23 50 3f 6f b9 7f be 8a a4 78 bd
       1.0539026 0.8130391 -0.24973081 -0.06070379
000320 12 c1 99 3e df d5 cb 3e 60 7e 1c 3f 3f 4c 14 3d
       0.30030113 0.39811608 0.6113033 0.036205526
000330 71 7c 81 3c f8 ca 12 bf 0d 9e aa 3e ec 7d f6 bd
       0.015806409 -0.57340956 0.33323708 -0.120357364
000340 d6 ea e6 3e 36 92 a4 3f 2e 16 c5 3c 5b b9 00 bf
       0.4510104 1.285712 0.024058428 -0.5028283
000350 9d fc ab 3e ff 93 63 bf 48 8f 54 3d 73 9e d2 3f
       0.33591166 -0.888977 0.051894456 1.6454605
000360 45 39 50 bf 64 b9 77 3d 31 ac 57 3e a5 14 6c 3d
       -0.81337386 0.060479537 0.2106178 0.057636876
000370 0c f8 66 be 65 31 1b 3d 3b ba 67 3e 0b c9 49 bf
       -0.2255556 0.037888903 0.22629635 -0.7882239
000380 e1 9f c2 3d db 20 ab be 86 f9 2a be a8 3a c9 3e
       0.09503151 -0.33423504 -0.16696748 0.39302564
000390 94 a0 cc be 1e d3 8d 3e 6c 62 1f be 20 f4 bf 3e
       -0.3996626 0.27700132 -0.15564889 0.3749094
0003a0 db 52 c2 3e 56 f4 c1 3d 9a 10 bc be 1c 3d b2 be
       0.3795384 0.094704315 -0.36731416 -0.34812248
0003b0 b8 7e 05 3d 6d 67 65 be 84 0e a9 be 74 9d 1b be
       0.03259155 -0.22402735 -0.33018887 -0.15196782
0003c0 1b ec 88 be ab 60 6f bc 32 51 7e be 15 07 f6 3e
       -0.26742634 -0.01461045 -0.24835661 0.48052278
0003d0 63 9a 8c be b4 0a e6 3a 38 dc de bd 0f 33 81 be
       -0.27461538 0.0017550797 -0.10881847 -0.25234267
0003e0 88 13 2a bd 3b cd 9a be 52 f0 36 be ea d2 7f be
       -0.041522533 -0.30234703 -0.17865112 -0.24982801
0003f0 36 14 e8 be e0 4f 24 3f a7 a5 50 3e e7 75 8a bc
       -0.4532792 0.6418438 0.20375691 -0.016901923

net.0.bias f4 [64]
000000 94 b6 a5 be ae cf 20 bd ca ea 3c 3d 41 6c 21 3e
       -0.3236586 -0.03926056 0.04612235 0.15763952
000010 f5 31 2b be 5c a8 3b bf 03 ad a1 bd d7 2d bb be
       -0.16718276 -0.7330377 -0.078943275 -0.3655841
000020 b6 df b6 be 3e 41 01 be 84 3b 6d be be b3 93 3e
       -0.35717553 -0.12622544 -0.23167235 0.2884807
000030 4c a4 2f 3e ad 90 10 be bf c5 b4 3e 2b 3a e5 bd
       0.17152518 -0.1411769 0.35307118 -0.11192735
000040 89 81 bd 3e 54 62 bc be 2d 62 89 be af e6 c5 3c
       0.3701289 -0.36793768 -0.26832715 0.02415785
000050 25 04 6b be b3 df ac bd 22 48 a2 be 69 7d a4 3e
       -0.229508 -0.08441105 -0.31695658 0.3212693
000060 ac f9 06 bf f6 37 59 3b da 2b 1e 3e 02 02 92 3e
       -0.5272472 0.0033144928 0.15446416 0.28517157
000070 e5 2c e7 be 10 0a 64 be c4 6c 71 3e 5a 2a d0 3d
       -0.4515144 -0.22269464 0.23576647 0.10164328
000080 18 ed a5 3e d0 01 14 3e b3 d0 b8 3d 9e d0 93 3e
       0.3240745 0.14453816 0.09024181 0.288701
000090 c7 77 98 3e 5c ee f5 be ee d8 da 3d 50 fc c7 3e
       0.29778883 -0.48033416 0.10685907 0.39059687
0000a0 2c c9 3c 3d b0 49 91 bc a4 21 14 3e ac 50 76 3d
       0.04609029 -0.017735332 0.14465958 0.06013553
0000b0 f6 47 c1 3e 3e 85 c1 3d 59 30 87 3e 59 e2 b5 3e
       0.37750214 0.09449242 0.26404074 0.35524252
0000c0 97 5c b0 be 6f 21 4e be b6 49 29 bd ce bf b1 be
       -0.3444564 -0.20129941 -0.04133006 -0.34716648
0000d0 85 07 0b 3e 4b a4 7f bc 08 fe b2 3e 2e 7d d5 bd
       0.13577087 -0.015603135 0.34959435 -0.10424267
0000e0 d3 e4 e8 3d 46 0c dd 3e 08 d8 4f 3e 03 2e ba be
       0.1137177 0.43173426 0.20297253 -0.3636323
0000f0 52 c2 a7 bc e8 8f 0c be b4 bd c6 be 08 a3 b8 3e
       -0.020478401 -0.13726771 -0.38816607 0.36061883

net.3.weight f4 [64, 64]
000000 91 28 e5 bd 62 21 a3 3c 47 cb fb 3d 26 ce bb 3c
       -0.11189378 0.01991338 0.122946315 0.022925448
000010 78 b7 46 bd 48 f5 63 be 4a b8 f4 be 4a 06 31 bd
       -0.048514813 -0.22261536 -0.4779685 -0.04321889
000020 41 4c 88 3e 18 2b 79 bd fd 92 43 be 7c 2d 4c bd
       0.26620677 -0.060832113 -0.1909904 -0.049848065
000030 d8 72 e9 bd ce 6d 78 3b b3 b7 51 bb a8 53 06 3d
       -0.11398858 0.0037907246 -0.0032000362 0.032794625
000040 fa c3 d7 3d e8 81 5e 3d 10 1f 83 bd 6a ea 05 bc
       0.105354264 0.054323107 -0.06402409 -0.008173564
000050 64 9c a7 bd 88 2c 80 3d 5c a2 e5 bd 42 d5 a8 3d
       -0.08184126 0.06258494 -0.11212608 0.08243801
000060 24 9e df bd b0 22 e6 bd 5c c7 a0 bd e9 6f 81 bd
       -0.10918835 -0.11237085 -0.07850525 -0.06320173
000070 b6 d3 85 3d cf 47 96 bd 3d 7e 2b be 70 b8 76 bb
       0.06534521 -0.07337915 -0.16747375 -0.0037646554
000080 c1 1c df 3d 12 ce fb 3d f3 9d b6 3c 31 da 95 39
       0.10894156 0.12295164 0.022292113 0.0002858206
000090 44 c2 02 be c1 2a 17 bd 7c 58 82 3e 00 4e 4e 3d
       -0.12769419 -0.036906008 0.25458133 0.050367355
0000a0 31 a0 80 3e e6 2c 85 bd 30 4c 0c bd 55 b7 7c bd
       0.25122216 -0.06502704 -0.034252346 -0.061698277
0000b0 63 30 94 bc fd ff 6d be 95 65 6a bd 1a 33 6e 3d
       -0.018089479 -0.23242183 -0.057225782 0.058154203
0000c0 6a 42 94 3d 7e bd a3 bc 32 a1 8f bd 49 35 22 bc
       0.0723923 -0.019987818 -0.070131674 -0.0099003995
0000d0 a4 ca 38 3e 4f f7 9f 3d 50 98 38 bc 30 0d b9 3e
       0.18046051 0.07810842 -0.011266783 0.36142874
0000e0 29 c1 c8 3c 7c c5 b9 be c0 78 c1 bc 5e 97 18 be
       0.024506168 -0.3628348 -0.023617148 -0.14901492
0000f0 8e 89 2e bd 2c 61 f1 3c 3d ec 00 3b 08 0b f9 bc
       -0.04261165 0.02946528 0.001967206 -0.030400768
000100 40 90 16 3e e0 09 b2 bb a0 69 86 bb 0a ea 3e 3d
       0.14703465 -0.005433306 -0.004101947 0.046609916
000110 63 54 e6 bc bb 27 fd 3b 5a c2 85 3e df 49 43 3d
       -0.02811641 0.0077256835 0.2612484 0.04767787
000120 bc 86 49 bf 7e a6 d4 3d 15 52 f1 bc 10 6f dd bd
       -0.78721213 0.10383318 -0.029458085 -0.10812199
000130 bc 9d 08 3d 57 10 06 be a4 65 f8 3d 06 0a 55 bd
       0.033353552 -0.1309217 0.121287614 -0.052011512
000140 42 4e 68 3e f0 44 61 bd 27 43 5e bd 62 94 db 3d
       0.22686103 -0.054997385 -0.05426326 0.10721661
000150 37 c5 95 bd 86 19 93 3d 10 44 a7 bd 7c ea 10 3d
       -0.07313006 0.071826026 -0.08167279 0.03537987
000160 22 5b b4 bd 31 15 1c 3d 8a 01 3a 3e f7 29 5e 3d
       -0.08806445 0.038106147 0.1816465 0.05423924
000170 9b 0d ad bb 08 2c 7c 3d d6 e8 dc 3d 86 74 48 3d
       -0.005281163 0.06156543 0.107865974 0.04893925
000180 b2 fc 6d 3d e5 11 02 3e 54 ab a7 3a 16 84 b5 bd
       0.058102317 0.12702139 0.0012792149 -0.08863084
000190 1b 41 9b 3e 07 ef 87 bd 2e 4f 1c bf 1e e9 92 bd
       0.3032311 -0.06637388 -0.6105832 -0.0717337
0001a0 d3 65 26 bf 50 44 a5 bd 3c 69 2e 3e 69 f5 59 3c
       -0.6499912 -0.0806967 0.17032331 0.013303139
0001b0 86 5b 82 3e c9 45 29 3e 51 9f 2f 3e c0 ad b4 3d
       0.25460452 0.16530527 0.17150618 0.08822203
0001c0 bd 80 08 be 15 d7 09 3e 5f b0 65 bd 3d db 97 3d
       -0.1333036 0.13460954 -0.056076404 0.07414863
0001d0 3c 0d 08 bd f4 6d dc 3d d4 8c 53 3d ab 44 30 bf
       -0.033215746 0.107631594 0.051647976 -0.6885478
0001e0 95 d7 f8 3d 25 8c 77 3d 3d e1 4d 3c cb a4 01 3e
       0.12150494 0.060436387 0.012565908 0.1266052
0001f0 15 2e ad bc 7e bf 93 bd dd 89 82 bd 0c f4 f9 3d
       -0.021140138 -0.072142586 -0.063739516 0.12204751
000200 0f 45 dd 3c cc be d9 3d 7c e8 bb bd 94 4d 7d be
       0.027010469 0.10632095 -0.09175202 -0.24736625
000210 78 53 f9 3d c2 e3 e1 3d 8c 55 4f bd 40 bf b4 bd
       0.121741235 0.110297695 -0.050618693 -0.088255405
000220 71 be bc bd a8 15 1a bd 60 c3 a6 bd 8e 40 9e bd
       -0.09216011 -0.03761831 -0.081427336 -0.077271566
000230 8c 1e 7e 3d 0f 6a 42 3e c6 dc ab 3d 13 21 31 be
       0.06204085 0.1898577 0.083917186 -0.17297773
000240 b1 41 93 bd d0 72 79 bd c7 0a 31 3d 6e 77 1c bd
       -0.07190264 -0.06090051 0.04322317 -0.038199835
000250 45 d7 8a be 11 4f 14 bd 7c 96 dd 3b 5f 96 de 3c
       -0.27117363 -0.036208216 0.006762324 0.027171312
000260 2c 27 9a be 0c 3e 08 3e 11 f4 c6 bd a4 cb f6 3d
       -0.3010801 0.13304919 -0.09714521 0.1205056
000270 cb b7 d6 bc 18 a7 05 be 53 15 e5 3b ab d9 b0 be
       -0.026210686 -0.13052022 0.0069910674 -0.34541067
000280 9a be 0e 3e f1 a4 63 be 44 dc 47 be 71 00 9a 3d
       0.13939896 -0.22230889 -0.19517618 0.075196154
000290 0f d1 f7 3c 00 ec f1 bb aa d1 a4 bc 8c 13 b2 3d
       0.030251054 -0.0073828697 -0.020119507 0.086951345
0002a0 ab 7b aa be f2 a1 ad 3d 4e 9e 53 bd 59 29 3f be
       -0.33297476 0.08478154 -0.051664643 -0.18668117
0002b0 f1 1e ed 3d 70 4a ff 3c 96 c5 9b 3a 75 7a 40 3e
       0.11578167 0.031163424 0.0011884447 0.18796714
0002c0 49 eb 48 be 18 9e ef bd e8 44 8e be c3 f2 7c bd
       -0.19621004 -0.11700076 -0.27786946 -0.061754953
0002d0 cb d2 a5 3c 01 cf 8a bd 12 1a fa 3d ed 08 62 3c
       0.020242115 -0.06777764 0.12212004 0.013796073
0002e0 02 e1 e5 3d ab d8 69 3e d2 2c 43 be fc 66 1f bd
       0.112245575 0.22836559 -0.19060066 -0.038916573
0002f0 4f de ef bd 15 99 a9 be b8 2e 91 be dc e0 61 3d
       -0.11712324 -0.33124605 -0.28355956 0.055146083
000300 45 e9 cf 3d f1 4b d4 3d fa b6 de 3d 54 69 fa bc
       0.101519145 0.10366047 0.10874744 -0.030567802
000310 3b 47 2d be d6 c4 90 bd 0e 20 49 3e db 15 a2 3d
       -0.16921704 -0.070687935 0.19641134 0.07914325
000320 b7 17 c0 bd a0 63 9c 3c be 6b 3d be e0 d6 88 3b
       -0.09379523 0.019090474 -0.18498132 0.0041760057
000330 1c f7 f1 bd f8 e8 6d bd f4 ca 03 be 44 6c d5 bd
       -0.118147105 -0.058083504 -0.12870389 -0.10421041
000340 3e a6 17 be 96 a1 83 bd f8 6b 56 3d 38 77 2c bc
       -0.1480951 -0.064273044 0.05234906 -0.010526471
000350 88 22 6a bc ac 9c da bd 7e 80 e4 bd e8 26 07 3d
       -0.014290459 -0.10674414 -0.111573204 0.03299609
000360 a7 28 24 bd 46 2e b5 bd ce 57 88 bd ac 5a 02 3d
       -0.04007783 -0.088467166 -0.066573724 0.031824753
000370 84 ee 29 bd 4e f0 a1 3d 5d a6 5e bc 25 14 85 3b
       -0.04148723 0.079071626 -0.013589469 0.0040612393
000380 6a d6 b4 bd 32 9f bc 3c 6c 74 fa 3d 1b cd bc bd
       -0.08829959 0.023025129 0.12229237 -0.09218808
000390 35 c8 84 bd 54 7f 9f 3c c4 4f 12 3e 16 49 c4 bd
       -0.06483499 0.019469894 0.1428824 -0.095842525
0003a0 9a 1d b6 bc a6 67 b8 3d d6 70 21 be bb d4 f8 bc
       -0.022230912 0.09004144 -0.157657 -0.030374875
0003b0 48 ae 09 3c 9a 78 30 be b2 f9 a8 bc b3 7a 2c 3d
       0.008403368 -0.17233506 -0.020626877 0.042109203
0003c0 fa c6 a5 bd 4b 0f ce bd a6 81 78 be 0d 38 5c 3d
       -0.080945924 -0.10061511 -0.24268207 0.05376439
0003d0 8b 58 e3 bd 39 56 6b 3d e0 6e a4 bd e0 64 3f 3d
       -0.111008726 0.057455275 -0.0802896 0.04672706
0003e0 26 e6 d1 3d 44 74 a1 3d a8 1f a0 3d 9d d1 39 bd
       0.102489755 0.07883504 0.07818538 -0.04536592
0003f0 20 5b 24 3c a6 2f 9a bc 35 5c fe 3c 4c e3 31 bd
       0.0100314915 -0.018821549 0.031049827 -0.043429658

net.3.bias f4 [64]
000000 c5 9d a4 bd cf 00 0f 3f 09 63 ea 3e 50 ce 55 3b
       -0.08037905 0.5586061 0.45778683 0.0032624193
000010 52 ab ce 3e 1e 50 2a 3e 0c 9b c5 3d ea c3 13 bd
       0.40365082 0.16632125 0.096487135 -0.03607551
000020 f4 ad fd 3e 79 30 9b 3e 09 46 40 3e 7d f9 0f 3f
       0.49546778 0.3031042 0.18776716 0.56240064
000030 25 e8 64 be 6b 3d 7f 3e 80 82 a9 bd d0 0f 04 3f
       -0.22354181 0.24925773 -0.08276844 0.5158663
000040 12 11 46 3e 97 88 1d bd d1 a3 ab 3e 66 eb dd 3d
       0.1934245 -0.03846034 0.3352342 0.10835914
000050 ab a3 9e 3e ce f2 e7 3d 4b 86 13 3f 71 4d 0a bd
       0.30984244 0.11325608 0.5762679 -0.03376526
000060 d8 9c df 3e 8a 01 5b 3d f9 32 7e bd 22 99 b2 3d
       0.4367435 0.053468265 -0.06206033 0.08720614
000070 1d 3b 92 3d 0a 03 b0 3e da 3c 84 3d dc 27 18 3d
       0.07140181 0.3437732 0.06456919 0.037147388
000080 8f 3b 35 3f 0f 21 33 3c e7 ad 2a 3e de 17 28 3d
       0.70794004 0.010933175 0.16667901 0.041038387
000090 54 a4 51 be 41 c7 71 3e a8 1c 33 3d 4e 0c 29 3f
       -0.20472842 0.23611166 0.0437285 0.660344
0000a0 55 16 ad bb 8a dc 16 bd 58 df a7 bd fa ac c8 3e
       -0.005282203 -0.036831416 -0.08196896 0.3919447
0000b0 ed 24 9f 3e ba 7e 28 be 01 4d d2 3e 96 28 b5 3d
       0.3108286 -0.16454592 0.41074374 0.08845632
0000c0 e9 ec 39 3b 9a 48 1a bd 58 30 dc 3e ba 65 81 3e
       0.002836997 -0.037666894 0.43005633 0.25272924
0000d0 50 86 55 3e 98 f0 8d be a5 29 20 3d be b1 18 3f
       0.20852017 -0.2772262 0.039102215 0.59646213
0000e0 27 02 02 3d 8e 56 56 3f 7a 47 f3 3e 84 d6 05 be
       0.031740334 0.8372582 0.4751547 -0.13070112
0000f0 81 ba 54 bd a6 8b f4 3d 5f 06 e8 bd 10 78 e8 3e
       -0.051935676 0.11940698 -0.1132934 0.454041

net.6.weight f4 [3, 64]
000000 d1 42 b5 bd c4 57 82 3d 4b d2 08 bd 6c 7e a6 3d
       -0.08850635 0.06364396 -0.033403676 0.08129582
000010 72 6b 99 3d a1 35 04 bf 69 7b b9 3d 42 b4 32 be
       0.07491197 -0.5164433 0.09056742 -0.17451575
000020 a0 51 b1 bd 1b 9d 06 3d 9c 00 cf be fc bc 80 3e
       -0.08658147 0.03286467 -0.40430152 0.25144184
000030 a0 d7 63 3d e6 68 5d 3e f0 a0 72 bc b0 19 2a 3e
       0.055625558 0.21622047 -0.014808878 0.16611362
000040 ce a7 45 3e 5d 12 78 bc 20 9a 87 3b 17 a8 50 be
       0.19302294 -0.015141097 0.004138246 -0.20376621
000050 8f 12 40 3d bb 2b 86 bd be ac 91 bc 0e be de 3e
       0.0468927 -0.0655131 -0.017782565 0.43504375
000060 2c 4d a5 3d 62 e4 01 be 46 bb 17 3d 20 dd 71 bd
       0.0807136 -0.12684777 0.037043832 -0.05904877
000070 01 47 9d be e1 d6 cd 3e 5b bf 9c bd f5 16 1b 3e
       -0.30718234 0.40203002 -0.07653686 0.15145476
000080 33 f7 a0 3d 27 c4 61 3e 9b 81 ac be 57 d5 34 bb
       0.078596495 0.22047482 -0.3369263 -0.002759298
000090 47 47 28 3a 51 30 76 3e e2 fb 20 3d 4c 9c 0d 3e
       0.00064193126 0.24041869 0.039302714 0.13829154
0000a0 ce d5 ff bc 11 1c bd 3b 32 ae ba bc a9 a8 66 3e
       -0.03122988 0.005771168 -0.02278814 0.22525276
0000b0 d8 3d c6 3d 79 07 77 bd f2 a9 d1 3d 0e 6d f5 bb
       0.096797645 -0.06030986 0.102374926 -0.007489807
0000c0 b1 0d 5f 3e 0a a6 d1 bc 3a cc be bd de ae c1 3d
       0.21782567 -0.025591869 -0.09316297 0.094571814
0000d0 17 e1 6b 3e bf 3e 10 3e 23 c0 20 be 20 0c 5d 3e
       0.23035084 0.14086436 -0.15698294 0.21586657
0000e0 c6 12 c5 3b ae d3 29 3e 9f 2e fb 3d 51 d8 c1 bc
       0.006014201 0.16584656 0.12264752 -0.023662718
0000f0 34 54 78 be e0 59 6b 3e 63 ef dc bd cd ee 83 3d
       -0.24250871 0.22983503 -0.10787847 0.06442032
000100 1c c0 b1 3c 42 31 fb 3d e3 7e 47 3e e4 01 ca 3d
       0.02169805 0.122652546 0.19481997 0.09863642
000110 e5 de cf 3d f7 c4 a1 3c ed b8 75 3c 83 d7 58 3d
       0.10149936 0.01974724 0.014997703 0.052939903
000120 b7 e6 ed 3d 39 2c af 3d d3 13 d0 3c 0b 39 50 3e
       0.11616271 0.08553357 0.025400078 0.2033426
000130 3d 67 4b 3c 01 ea d9 3d 7a 71 38 3d e3 60 9e 3d
       0.012414751 0.10640336 0.045030095 0.077333234
000140 6d 97 68 3d be 6b 10 bb 0b 66 34 3e 87 55 33 3c
       0.056785036 -0.0022036876 0.17617051 0.010945684
000150 0c 5e 87 3d e2 bf 11 3d 48 0e c4 3d b5 05 ec 3c
       0.06609735 0.035583384 0.095730364 0.028811315
000160 eb e3 e1 3d 75 f1 8a 3d e8 08 12 bb 4f 41 88 3d
       0.110298 0.067843355 -0.002228314 0.066530816
000170 49 3a 8f 3a 0c a2 38 3e 07 87 a8 3d 64 29 e6 3c
       0.0010927405 0.18030566 0.082288794 0.028095908
000180 56 70 f3 3d ba d4 82 3c 30 f9 d8 3c 56 0a 86 bd
       0.11886661 0.015970577 0.02648601 -0.0654494
000190 98 b0 a4 bd 7f 14 ee 3d f4 85 98 3c e0 8f d0 3d
       -0.08041495 0.11625003 0.018618561 0.10183692
0001a0 87 69 73 3d 1f b1 27 bd 5e 0d 02 39 39 88 df 3d
       0.05942681 -0.0409404 0.00012402746 0.10914654
0001b0 f9 48 68 3d ff f9 b5 bc 1e 7b 5c 3e 1f 23 3b 3d
       0.056710217 -0.022213934 0.2153134 0.04568779
0001c0 39 c1 c1 3d d6 82 8e bc a1 32 e2 3d 8b b5 a9 3d
       0.094606824 -0.017396372 0.11044813 0.0828658
0001d0 1a 72 fa 3d 9b ee ae bd 66 26 18 bc f8 c3 7e 3e
       0.122287944 -0.08541604 -0.009286499 0.24879444
0001e0 6b 1f 12 3d a9 6d ab 3e 44 53 ff 3d 29 5d 7d bd
       0.035674494 0.33482102 0.124670535 -0.061856423
0001f0 02 b3 65 3d 1a 3c 95 bd 05 67 89 bd 38 62 40 3e
       0.05607892 -0.07286854 -0.067091025 0.18787467
000200 b7 c2 51 bc 96 7c 1b 3e e8 c3 47 3e 0a fb 06 3e
       -0.012802771 0.15184245 0.19508326 0.13181701
000210 b9 df 43 3d 60 4b 4b 3d 12 7e 02 3d 37 f9 66 3d
       0.04782078 0.04963243 0.03185851 0.056390014
000220 e3 5c 3c 3e 55 0a a3 3d 6b f0 3b 3c e4 f5 4f 3e
       0.18394808 0.07960955 0.011470894 0.20308644
000230 ca 4c 02 bd 55 e6 fd 3d 98 1d 92 3c 9f d5 02 3e
       -0.031811513 0.12397448 0.017836377 0.12776802
000240 84 c7 90 3d e9 44 b0 3d 41 9b ac 3c 91 bb 9d 3d
       0.070693046 0.086068936 0.021070125 0.07701791
000250 53 b3 76 3d b6 ce 92 3d f7 6d 04 3e 24 49 b0 3d
       0.06022961 0.07168333 0.12932573 0.086077005
000260 3f b7 da 3d 76 1d 8e 3d 70 97 10 bc ed 24 90 3c
       0.10679483 0.06939213 -0.008825168 0.017595733
000270 6b 00 64 3d 2d c1 47 3e 81 e8 9d 3d 24 ff b7 3d
       0.05566446 0.19507284 0.07710362 0.08984211
000280 31 09 f2 3d ff f0 06 3d b6 5e df 3c 6c 75 c9 3d
       0.11818159 0.032944676 0.027266841 0.098368496
000290 e6 7d bf 3c f0 a8 93 3d cf e6 4b 3c 22 8f be 3d
       0.023375463 0.07209957 0.012445166 0.09304644
0002a0 a3 cf 2d 3e af 0c c2 bc 35 83 62 bd ec 8f e1 3d
       0.16973738 -0.023687689 -0.05530091 0.11013779
0002b0 b7 b2 6f 3d 2c 33 95 bd 14 9c 51 3e 15 f4 b3 3c
       0.058520045 -0.07285151 0.20469695 0.021966973
0002c0 e6 34 42 3d 3e 28 3f 3d 76 8c b4 3d de 13 da 3d
       0.04741373 0.046669237 0.08815853 0.106483206
0002d0 4e 30 a6 3d ec cb f0 3c 55 66 18 3d e8 d7 5a 3e
       0.08114682 0.029394113 0.037206966 0.21371424
0002e0 6f d2 ab bd 2c 29 b2 3e ea 02 c2 3d d1 70 fb 3d
       -0.083897464 0.34797037 0.09473212 0.122773774
0002f0 8e 57 1e be d3 01 52 3d 25 46 5c 3a 0f 98 6d 3e
       -0.15463087 0.05127127 0.00084027863 0.23202537

net.6.bias f4 [3]
000000 25 16 e6 3e 98 d9 8d 3f 7c 69 84 3f
       0.4493877 1.1082029 1.0344691
